our_models/compas/unreg_Hinput_Th1_Reg1e-02_LR0.001/checkpoint.pth.tar (torch_old, 24602 bytes, 34 tensors)

parametrizer.linear1.weight f4 [10, 11]
000000 b0 63 6e 3e 8a c9 c4 be b3 46 cb 3d d3 05 1f be
       0.23280215 -0.38435012 0.09925594 -0.15529566
000010 70 bd 1b bd 9d 45 08 be 11 c2 3f be 52 90 72 be
       -0.03802246 -0.13307805 -0.18726374 -0.23687866
000020 f6 d9 bb be df 68 3e 3e 29 07 96 be f5 83 9b be
       -0.36689728 0.18594693 -0.29302338 -0.30374113
000030 a2 16 87 be 0d c1 33 3e 9f 5e 40 be 8b 0c a9 bd
       -0.26384455 0.17554112 -0.18786095 -0.082543455
000040 6b 34 96 be c8 12 0a 3e 5e 7c 8d 3e 64 d1 08 be
       -0.29336867 0.13483727 0.27633947 -0.13361126
000050 57 4d 73 be 52 fa 24 be f5 c0 85 3e 9f 15 1f bf
       -0.23759972 -0.16111115 0.26123777 -0.62142366
000060 e4 e9 4d be 78 34 81 3d 7d 31 31 bd 2e a1 d4 bd
       -0.20108753 0.06308836 -0.043260086 -0.10382305
000070 b5 ce e4 3c 2c 59 8c 3e 94 54 dd 3d 7e b3 8a be
       0.027930597 0.27411783 0.108071476 -0.27090067
000080 54 f5 51 be d1 fe 61 be 0d 00 21 bf 0b f2 40 3e
       -0.20503742 -0.22069861 -0.628907 0.18842332
000090 26 1e 60 3d bf 21 3a be 1c 1e 84 3e eb 73 16 bd
       0.05471625 -0.18176936 0.25804222 -0.03673164
0000a0 6e ac 6a be ab 11 8d 3e 5a e2 7f be 70 0c b0 3e
       -0.22917339 0.27552542 -0.2498869 0.3438449
0000b0 b9 73 83 3b 40 66 ac 3e b6 eb 0f be 8b aa 21 3e
       0.004011598 0.3367176 -0.1405476 0.15787713
0000c0 45 6c 69 3e 7a bc 43 3e 19 2d 75 be 94 89 4b 3e
       0.22795208 0.19114867 -0.23942985 0.198767
0000d0 2b 2b 1d 3d 57 7d 25 be 31 01 90 be 0f 6b 44 3e
       0.038371246 -0.16161095 -0.2812591 0.19181465
0000e0 ee 0a 24 3f a4 52 42 3e 5e 7b 5e 3e 20 44 3b be
       0.6407918 0.18976837 0.21726748 -0.18287706
0000f0 ae ee 69 bd 59 8b 0d 3e d7 a2 03 be 14 26 bc b8
       -0.05711239 0.13822688 -0.12855087 -8.971631e-05
000100 c1 5d 4c 3d c4 7c 98 3e 2d 20 73 3e 5e dc b6 be
       0.0498941 0.2978269 0.23742743 -0.35715002
000110 7d 2b ca 3e cd 27 6a 3c f8 b5 50 3e 66 5d 10 3e
       0.39486304 0.014291716 0.20381916 0.14098129
000120 41 44 4e 3c e3 2e 61 be 9b fb 86 be b9 ff 21 be
       0.012589515 -0.21990542 -0.26363835 -0.15820207
000130 fa 73 80 3e 38 b6 91 be af a2 7a be 0b 0b a6 3e
       0.25088483 -0.28459334 -0.24476121 0.324303
000140 4b 91 15 be 8b 8e ec 3d 64 2d 87 3e 89 8d 58 3e
       -0.14606206 0.115506254 0.26401818 0.21147741
000150 da 28 84 bd d2 a2 82 be 96 8b 75 3e 44 a3 fd 3d
       -0.06453104 -0.25514847 0.23979029 0.12384656
000160 5b 87 03 3d ca 93 45 bf ce f8 ae 3e fa c8 95 be
       0.032111507 -0.77178633 0.34174198 -0.29254895
000170 c1 14 bc 3d fc d6 68 3e b0 0e 59 3d b2 43 04 3e
       0.09183646 0.2273826 0.052992523 0.12916449
000180 d0 89 56 3e b1 2f 6e 3e e2 e6 4f 3e 5b 22 2b 3e
       0.20951009 0.2326038 0.20302919 0.16712324
000190 5a c5 e9 3e ab d9 b9 3d 03 d3 a3 3e 71 8f 97 3e
       0.4565838 0.0907472 0.31996927 0.29601625
0001a0 67 f4 a6 3d c7 13 d1 bd fc 80 97 3e 2d 15 4b be
       0.08152085 -0.1020885 0.29590595 -0.19832297
0001b0 48 32 e2 bc 32 f1 6e 3d
       -0.027611867 0.05833549

parametrizer.linear1.bias f4 [10]
000000 05 c2 c5 3e 9a 07 7b bc f8 3b 72 3e 09 c0 ae 3e
       0.38624588 -0.015321637 0.23655689 0.34130886
000010 ed cd 17 be 4b 88 c5 bd 87 05 bf 3e 44 98 0d 3e
       -0.14824648 -0.096451364 0.37308905 0.13827616
000020 eb e1 a5 bd 9f 07 20 bd
       -0.08099731 -0.039069768

parametrizer.linear2.weight f4 [10, 10]
000000 a1 fe 6a be 96 5d 86 be 97 3e 04 bf 13 28 22 3c
       -0.22948696 -0.26243275 -0.51658005 0.00989725
000010 9c 4e d3 3e 24 8a 34 bc 13 ca 96 be 43 5c 8d be
       0.41270912 -0.011019263 -0.29451045 -0.27609453
000020 37 b3 14 bf 78 4e 5f 3e c2 ea 32 3e a5 ca bc 3e
       -0.5808596 0.21807277 0.17472365 0.36873356
000030 41 5f 1f 3d 49 3a f5 3e 11 81 44 3b 6b ab b7 bd
       0.0389092 0.4789603 0.0029984156 -0.08968242
000040 39 30 ee 3d 6d 2c 74 3d 23 55 ef 3e 21 f9 32 be
       0.116302915 0.05961268 0.46744642 -0.17477848
000050 74 52 88 3e 2d de 96 be 58 c1 48 be a1 a0 e4 be
       0.26625407 -0.29466382 -0.19605005 -0.446538
000060 9d 22 90 3d a7 bb 1f 3e 61 0d 0a bd 9c 92 b7 be
       0.07037852 0.15598927 -0.033704165 -0.35854042
000070 b3 e0 86 be c3 b1 54 bd 89 1b a1 be ba 30 22 be
       -0.26343307 -0.05192734 -0.3146632 -0.158389
000080 38 04 e4 be 97 8c 95 be b4 88 08 bd 1e 03 05 3f
       -0.4453447 -0.29208824 -0.033333495 0.5195788
000090 e0 6f 45 bd 07 5f af be 0f 69 48 be 7d 8b 71 3e
       -0.048202395 -0.34252188 -0.19571327 0.23588367
0000a0 96 6b b6 3d a1 85 45 3e 2a 8e bf 3d 7f 75 90 be
       0.08907239 0.19289257 0.093532875 -0.28214642
0000b0 91 41 b7 3e a0 57 c1 bd 17 a0 ae be 8c 9a 91 bb
       0.3579221 -0.09440541 -0.34106514 -0.0044434723
0000c0 61 2d 01 3e 37 38 1c be 5f f0 f2 bd 85 46 f6 3d
       0.12614967 -0.1525582 -0.118622534 0.12025169
0000d0 e5 ca 01 be fc 4a 1c bd 7a c4 d6 3c 6c 56 a3 3e
       -0.12675054 -0.03815745 0.026216734 0.31901872
0000e0 f9 82 52 3e 1f 50 6a 3d 6d ef 38 be 9a 36 3b 3e
       0.20557775 0.057205316 -0.18060084 0.18282548
0000f0 7a 09 e1 3d d0 ff b5 bd 82 4c a9 3e dc d6 b3 3e
       0.10988136 -0.08886683 0.33066183 0.35124862
000100 68 a9 2d bd 5d 70 b4 be c2 85 2c 3e b3 ab da bc
       -0.042397887 -0.35241976 0.168479 -0.0266932
000110 60 d5 92 3e 7c 6c a7 be 97 2e 25 3e 6c 20 e0 3e
       0.28678417 -0.32699955 0.16131054 0.43774736
000120 03 02 50 be e3 22 be 3d 9a 3e a8 bd 30 2c 19 bf
       -0.20313267 0.09283998 -0.08215065 -0.5983305
000130 31 76 88 be 68 e2 47 3e 79 f7 75 3e 4b 97 07 bc
       -0.26652673 0.19519961 0.24020185 -0.008275817
000140 13 20 02 3f fc ad 61 3e 60 de 58 3d 78 4f aa bd
       0.5083019 0.22039026 0.05294645 -0.08315939
000150 9d 19 70 be 67 69 90 be 07 d8 2b 3e d9 b8 8a 3e
       -0.2344727 -0.28205416 0.16781627 0.27094153
000160 87 4d bf 3e 36 25 8f 3e bf 8f ca bd cb d0 23 be
       0.37363836 0.27958077 -0.09890699 -0.15997617
000170 34 64 43 be 8a 20 a9 be df 2d 9c 3e 37 a0 e8 3e
       -0.19081193 -0.33032638 0.30503747 0.45434734
000180 00 61 56 be 29 d5 9b 3d ad 10 4c be 10 ef c8 3e
       -0.2093544 0.076090164 -0.19928236 0.3924489

parametrizer.linear2.bias f4 [10]
000000 15 79 ce 3c 87 7a 8b bd dd 53 9d be d3 ae 1c 3e
       0.02520422 -0.068104796 -0.30728045 0.15301065
000010 79 fd 8d bd 23 22 16 be 05 d6 21 3e 23 3c 08 be
       -0.06933112 -0.1466146 0.15804298 -0.1330419
000020 5f ce 58 3e 8c e9 99 be
       0.21172474 -0.30060995

parametrizer.linear3.weight f4 [5, 10]
000000 8c c2 b7 be b7 a3 d2 3e cd 63 5a be b6 a0 ed be
       -0.35890615 0.4114053 -0.21327133 -0.46411675
000010 0d fd d7 bd 08 56 8d be 30 12 ae 3e ce 9c 47 3e
       -0.105463125 -0.276047 0.3399825 0.1949341
000020 f9 5e 8b 3e 21 67 9f be 40 f0 78 3e f7 fd b5 be
       0.27220896 -0.3113337 0.24310398 -0.35545322
000030 20 00 43 3d 89 06 ca 3e 30 63 8e 3e 00 fc 9a 3e
       0.04760754 0.3945811 0.2781005 0.30270386
000040 c5 95 e6 be 10 39 6f be ce 89 5e be 8a b1 69 3e
       -0.4503614 -0.23361611 -0.21732256 0.22821632
000050 06 a6 c5 3e f1 cc 8e be 48 56 2e 3e 71 71 cf 3e
       0.38603228 -0.27890733 0.17025101 0.40516236
000060 a5 61 c1 3e 27 46 30 3e 96 42 b9 be 2d ef 1c 3e
       0.3776981 0.17214261 -0.36183614 0.15325613
000070 4f 17 ef be ab 81 c5 3d e3 17 f6 3e e2 57 81 be
       -0.4669747 0.09643873 0.480651 -0.25262362
000080 63 8f c2 3e 44 2c c8 3e f6 f1 25 be 1f 56 6b 3e
       0.3800002 0.39096272 -0.16205582 0.22982071
000090 98 3e 67 be 19 69 81 be 25 96 5c 3d fb f7 bc 3e
       -0.22582471 -0.25275496 0.053854126 0.36907944
0000a0 e5 eb 92 3e d2 24 cc 3d df ff f4 bd a6 96 e6 be
       0.28695598 0.099679604 -0.11962866 -0.4503681
0000b0 43 70 d6 3e 70 d7 70 3d 96 e0 9d 3d 20 27 f0 3e
       0.41882524 0.058799207 0.07708852 0.4690485
0000c0 6e 3a c7 be 69 2b 8d 3e
       -0.38911766 0.27572182

parametrizer.linear3.bias f4 [5]
000000 71 2b 51 be bc a3 a4 be f7 0b 74 be 37 d1 a8 bd
       -0.20426728 -0.3215617 -0.23832689 -0.082430296
000010 90 b3 c3 3d
       0.09555733

parametrizer.linear4.weight f4 [12, 5]
000000 11 2f a9 be a8 3a 24 be ce 4c 05 bf 4a 9f 2d 3f
       -0.3304372 -0.16038 -0.5207032 0.6782118
000010 2f 14 86 be 14 11 d0 be e9 da 6e 3e 05 f1 5b be
       -0.26187274 -0.4063803 0.23325695 -0.2147866
000020 e1 b3 88 3c 7a 72 b0 be f0 62 ad 3d ed 2c 08 3f
       0.016687335 -0.3446234 0.084661365 0.5319355
000030 8a 28 00 3f cf da 08 bd b7 44 c9 bb a1 1a ef be
       0.5006186 -0.033411797 -0.0061422247 -0.46700004
000040 b5 bb d6 bd 4c 52 ca be cd 2a af be f9 3d 78 be
       -0.10485021 -0.39515913 -0.34212342 -0.2424239
000050 11 6f ba be 3e 7f ca bd 68 09 8c 3e ec 2c 1a 3f
       -0.36412862 -0.09887551 0.27350926 0.60224795
000060 0e 72 b5 be e5 28 1b 3d 47 66 ae 3d 9c 83 dd 3d
       -0.3543858 0.037880797 0.085156016 0.10816118
000070 bc 73 89 3d b0 1e e2 be c1 c8 21 bf f5 52 55 be
       0.06711528 -0.44164038 -0.6319695 -0.20832427
000080 b8 36 b0 3e fb 88 12 3f bf 2a d2 3e 38 ab e1 3d
       0.34416747 0.57240266 0.41048238 0.110189855
000090 80 1b af 3d 5b df 86 be 53 38 aa be d4 c7 8c 3e
       0.08550167 -0.26342282 -0.33246097 0.27496207
0000a0 f5 61 8f 3e ae 6b d1 3e f6 62 2f be 48 59 8c 3d
       0.28004423 0.40902466 -0.17127594 0.068529665
0000b0 e1 bd 35 be a4 29 51 3e 23 81 a9 3e d6 ba 34 3e
       -0.17748214 0.20426041 0.33106336 0.17649397
0000c0 f1 78 ba 3d ae ef e2 be e0 de c2 be 6d 69 e4 3e
       0.09105099 -0.44323486 -0.38060665 0.44611683
0000d0 e1 5f 55 be f8 d4 cd 3e fc 0d c5 3e d5 81 41 bf
       -0.20837356 0.40201545 0.38487232 -0.7558873
0000e0 1c 93 22 3f f6 f8 2c 3f 82 f6 2d 3f c4 fd d4 3d
       0.6350572 0.67567384 0.67954266 0.103999645

parametrizer.linear4.bias f4 [12]
000000 db c6 09 be da e7 83 3e 1c e2 17 3e f7 3b 05 be
       -0.13454764 0.25762826 0.14832348 -0.13011156
000010 3c c7 db 3e 9a 26 9f bd 91 e8 5a 3d 68 42 d8 3d
       0.4292544 -0.077710345 0.05344445 0.10559541
000020 17 fe f0 be 36 08 ba 3e 6a c7 fa bc 97 19 34 be
       -0.47068855 0.3633439 -0.030612666 -0.17587887

exp_avg f4 [10, 11]
000000 ee 5e 5e bc c5 3b 59 bb 9e 4b 16 3b ce 7b a3 3b
       -0.013572438 -0.0033147198 0.0022933255 0.004989124
000010 10 98 47 bc 9d 0c 86 37 c5 50 3c 3b 00 00 00 00
       -0.012182251 1.5979918e-05 0.0028734666 0.0
000020 f5 54 05 3a 77 91 3c 38 d7 0c 0c bc 86 b0 28 bc
       0.0005086207 4.4958168e-05 -0.008547983 -0.010295993
000030 fd a2 4d bb 9c 76 37 3b 77 d3 51 3b 67 13 4f bc
       -0.0031377666 0.002799428 0.0032016912 -0.012638903
000040 5a 14 e7 37 8c b1 11 3b 00 00 00 00 d8 0e a3 39
       2.7546823e-05 0.002223107 0.0 0.00031100842
000050 58 f9 06 bb c5 39 03 bc d8 55 a2 bc 51 92 af bb
       -0.0020595398 -0.008009379 -0.019816324 -0.0053580184
000060 06 92 8e 3b 0e df e1 3b fe f0 b6 bc 0d 3c dc 37
       0.0043509034 0.0068930453 -0.02233171 2.6254007e-05
000070 e2 7c 84 3b 00 00 00 00 3d 85 bd 38 ff 04 a0 b9
       0.0040432075 0.0 9.03704e-05 -0.000305213
000080 26 a5 84 bc 77 95 a3 bc b8 79 a3 bb de f9 ae 3b
       -0.01619203 -0.019968731 -0.0049888752 0.005339845
000090 f3 b9 69 3b 00 14 cc bc e3 b3 1c 38 96 9f 6f 3b
       0.0035663813 -0.02491188 3.736083e-05 0.0036563626
0000a0 00 00 00 00 b5 8f a4 ba 39 f6 80 ba ff 22 85 bc
       0.0 -0.0012555035 -0.0009839005 -0.016252039
0000b0 47 de 3e 3c d9 88 3d 3b 1a 5e 13 bb 1b 63 44 bb
       0.011649675 0.002892068 -0.0022486509 -0.0029966298
0000c0 e5 bf 34 3c 17 47 11 b7 95 02 1f bb 00 00 00 00
       0.011032079 -8.659225e-06 -0.0024263014 0.0
0000d0 fb 44 82 b9 44 5a 07 3a 5a 58 ff 3b 40 e0 b5 3c
       -0.00024846927 0.0005163292 0.0077925147 0.022201657
0000e0 c7 56 dc 3b ae a3 7d bb 99 5a de bb db e9 ee 3c
       0.006724212 -0.0038702297 -0.0067857024 0.029164245
0000f0 75 c7 3a b8 91 7a 48 bb 00 00 00 00 ed a2 23 ba
       -4.4531615e-05 -0.0030590633 0.0 -0.00062422344
000100 e1 80 90 3b 43 28 86 3c 4e cc 7c bb 88 fe ec ba
       0.004409895 0.01637662 -0.0038573924 -0.0018081227
000110 ba 57 e1 b7 46 8b 50 3b d3 ef a6 bb 7f df 87 36
       -2.6862941e-05 0.0031821295 -0.0050945072 4.049332e-06
000120 e9 db ca 3a 00 00 00 00 a8 5f 98 39 38 71 c6 38
       0.0015476915 0.0 0.0002906297 9.4624644e-05
000130 ba 92 1f bb 0f d2 55 bc fd 8f 54 bb 26 2c 22 3b
       -0.002434893 -0.01305057 -0.0032434457 0.0024745553
000140 14 51 3f 3b 5e 38 71 bc 66 cc c1 37 e3 c2 17 3b
       0.0029192613 -0.014722912 2.3102573e-05 0.0023156933
000150 00 00 00 00 b0 db eb 39 02 ea d2 38 12 e5 27 bc
       0.0 0.00044986373 0.00010057168 -0.010247486
000160 4a b3 f4 bc 25 6a f9 bb a8 f3 a4 3b a4 64 09 3c
       -0.029870648 -0.0076115304 0.005033929 0.008385811
000170 a6 0c 00 bd 4e c5 2b 38 96 3f 81 3b 00 00 00 00
       -0.031262062 4.095333e-05 0.0039443476 0.0
000180 7e 7a bb 39 6c 08 e6 b8 a9 3f ac bc bb 2e 54 3c
       0.00035758683 -0.00010968823 -0.02102645 0.012950595
000190 05 4c 8d 3b c5 d5 cd ba e2 eb aa bb ee e4 79 3c
       0.0043120407 -0.0015703967 -0.0052161077 0.015252335
0001a0 a0 a6 c8 b7 f1 7f 0e bb 00 00 00 00 6e 60 1a 38
       -2.3919449e-05 -0.002174374 0.0 3.680627e-05
0001b0 15 b8 f2 39 64 41 2c 3c
       0.0004629499 0.010513637

exp_avg_sq f4 [10, 11]
000000 58 fd ae 39 e9 49 83 38 3a 45 f4 38 7f 22 52 39
       0.00033376622 6.2603336e-05 0.00011647721 0.00020040011
000010 77 48 1b 3a 2e dd 3b 35 ff 15 4d 38 00 00 00 00
       0.0005923579 6.998479e-07 4.8896294e-05 0.0
000020 20 b8 9f 37 75 4a d0 38 39 15 87 39 d9 97 04 3a
       1.9040017e-05 9.9320816e-05 0.0002576502 0.00050580275
000030 16 32 dc 38 dd 7a 4a 39 5a f0 62 39 e3 ac 5d 3a
       0.00010499747 0.00019309991 0.00021642577 0.0008456243
000040 50 76 65 35 5c 5a 81 38 00 00 00 00 75 60 84 37
       8.5481315e-07 6.16803e-05 0.0 1.5780543e-05
000050 45 e7 f7 38 13 58 85 39 87 43 8e 3a 70 0a 2c 39
       0.00011820955 0.00025433357 0.0010853865 0.00016407087
000060 44 7f af 39 ab d4 e4 39 5b 78 d2 3a b5 a3 00 36
       0.0003347342 0.00043646 0.0016057597 1.9168776e-06
000070 55 1b c9 38 00 00 00 00 02 54 08 38 6c 59 9f 39
       9.589518e-05 0.0 3.2503165e-05 0.00030393468
000080 3b 73 1a 3a 53 bc ba 3a 9b 7b 79 39 fd f8 ee 39
       0.00058918045 0.0014246799 0.00023792537 0.00045580408
000090 91 5a 11 3a b1 77 06 3b 7b 08 13 36 a7 be fc 38
       0.00055448065 0.002051812 2.1909643e-06 0.00012051808
0000a0 00 00 00 00 0d 0e e0 37 d6 2f ca 39 e4 c6 27 3a
       0.0 2.6709424e-05 0.00038564083 0.00064001814
0000b0 3e 9a ba 39 67 ff 9b 38 4e 1c 07 39 49 bc 27 39
       0.00035591604 7.438548e-05 0.00012885148 0.00015996503
0000c0 93 60 0f 3a 1a 08 10 35 94 2b 36 38 00 00 00 00
       0.0005469408 5.365597e-07 4.3432767e-05 0.0
0000d0 a1 3d 53 37 86 72 bb 38 e2 b6 6e 39 df 43 cf 3a
       1.2590929e-05 8.9381865e-05 0.00022765578 0.0015813074
0000e0 ca ff 7b 39 8c 97 e0 39 b7 d8 3d 3a 9a a2 27 3b
       0.00024032514 0.0004283752 0.0007242071 0.0025579096
0000f0 d4 2d 69 36 40 66 e7 38 00 00 00 00 3f dd 63 38
       3.474638e-06 0.00011033984 0.0 5.432707e-05
000100 6f e5 06 3a 08 f8 41 3a c7 d4 51 38 e2 53 77 37
       0.00051458826 0.0007399325 5.0027647e-05 1.4741878e-05
000110 4d 7e 65 37 02 d0 0d 38 1a 55 cb 38 a2 b4 b8 33
       1.367887e-05 3.3810742e-05 9.695646e-05 8.6010246e-08
000120 f5 d9 8d 37 00 00 00 00 9a bd 9d 36 db d1 d6 37
       1.6910004e-05 0.0 4.701037e-06 2.560851e-05
000130 36 53 1b 38 01 da 22 3a ec 46 e0 38 bb bc 16 39
       3.7032376e-05 0.00062122947 0.000106943626 0.00014375422
000140 2e 3d 8b 39 8c 53 60 3a e1 6b a4 35 3b f6 69 38
       0.00026557728 0.00085573713 1.2250349e-06 5.578085e-05
000150 00 00 00 00 8a 2a 9a 37 65 14 16 39 45 fe 96 39
       0.0 1.837804e-05 0.00014312712 0.00028799675
000160 18 e0 0d 3b 39 b5 b7 39 9b 12 31 3a 86 36 6f 3a
       0.0021648463 0.000350395 0.00067547866 0.0009125251
000170 44 72 4c 3b d9 88 8a 36 a4 a7 57 39 00 00 00 00
       0.0031196037 4.1286517e-06 0.00020566449 0.0
000180 05 8f a6 38 d1 f4 1d 3a 57 c3 a2 3a c1 7c 06 3a
       7.942136e-05 0.0006025555 0.0012417835 0.0005130284
000190 48 af a3 38 49 61 06 39 ac 05 47 39 f6 c3 2d 3a
       7.805094e-05 0.00012815477 0.00018980232 0.0006628627
0001a0 14 46 a6 35 fb 6e 76 38 00 00 00 00 9b b8 d9 37
       1.2388359e-06 5.875433e-05 0.0 2.595438e-05
0001b0 64 3d 2b 39 78 49 91 39
       0.000163307 0.00027711294

exp_avg f4 [10]
000000 fb 64 9d bc 34 fd 9e bc 58 d1 fd bc 94 95 05 bd
       -0.01921319 -0.019407846 -0.030983612 -0.032613352
000010 3d ec 87 3c 7e 66 1d 3d 4e c4 fa bb 33 96 a1 bc
       0.01659214 0.038427822 -0.007652796 -0.01972494
000020 a8 62 2d bd c2 ca af 3c
       -0.042330414 0.021458987

exp_avg_sq f4 [10]
000000 b2 7e 5c 3a f3 49 9a 3a 2c 96 13 3b 8a 67 3e 3b
       0.0008411213 0.0011771306 0.002251993 0.0029053413
000010 62 c8 50 3a 63 fd 68 3b b3 94 3b 39 f0 c5 9d 3a
       0.00079644297 0.003555142 0.00017889104 0.0012037139
000020 93 54 8f 3b a0 ee 89 3a
       0.0043740957 0.0010523386

exp_avg f4 [10, 10]
000000 42 73 e9 3b c2 dc 04 bc f3 b1 62 3b 7c 50 07 3b
       0.0071243355 -0.008109273 0.003459093 0.0020647338
000010 74 6d 94 ba 05 0b 0b 3b 8f 58 47 3c ee cb 22 b8
       -0.0011324123 0.0021216285 0.01216711 -3.8813734e-05
000020 25 d7 bb b9 d1 4d d9 3b 55 72 c8 bb 32 b7 d4 3b
       -0.00035827715 0.006631591 -0.006117145 0.006491565
000030 c4 21 4a bb a3 80 bc ba 61 af e5 39 6b e2 a6 ba
       -0.003084288 -0.0014381598 0.0004380895 -0.0012732273
000040 38 1b 27 bc c7 ab 81 39 f3 67 4d 3a 95 1c b7 bb
       -0.010199361 0.00024732781 0.0007835619 -0.005588124
000050 1e 5c 86 3b ed 84 bf bb 99 6d 12 3b a6 35 da 3a
       0.0041003367 -0.0058447034 0.0022343157 0.0016648069
000060 3d 50 34 ba 96 da bb 3a 87 f9 04 3c f1 c7 76 39
       -0.00068784115 0.0014332111 0.008116133 0.00023534872
000070 3c 05 e0 b8 38 38 a0 3b 89 90 03 3c 0c 0b 08 bc
       -0.00010682127 0.0048895143 0.008030065 -0.008303415
000080 6a bd 4c 3b 1a 3a d3 3a 66 54 13 ba 94 65 8d 3a
       0.003124083 0.0016115338 -0.00056201813 0.0010787719
000090 f9 ad 55 3c 2b 2f 87 3a 36 25 17 ba 7a a6 f2 3b
       0.013041967 0.001031374 -0.0005765738 0.0074050995
0000a0 cb be 90 3a c0 8c 5b 39 b0 05 b9 b7 08 cf 12 38
       0.0011043189 0.00020937901 -2.2056367e-05 3.5001925e-05
0000b0 42 6c 7c b8 36 4f 57 b9 61 37 18 3a c6 3b 54 39
       -6.0182305e-05 -0.00020533506 0.0005806592 0.00020240163
0000c0 a1 88 aa b9 20 6e 1a b9 49 2e 98 3b a8 b6 a6 bb
       -0.00032526723 -0.00014727609 0.0046441895 -0.0050876923
0000d0 b6 09 18 3b d5 fa d8 3a 19 bf 4e ba 5c e1 a7 3a
       0.0023199148 0.0016554246 -0.0007886752 0.0012808251
0000e0 7d 8f 05 3c 94 92 96 37 00 0a 9f b9 ed b8 8a 3b
       0.008151886 1.794965e-05 -0.00030334294 0.0042334707
0000f0 89 b0 b6 bb 0a a4 b8 3b 10 ee 2a bb a8 98 c6 ba
       -0.005575244 0.0056347894 -0.0026081838 -0.0015151696
000100 59 0c f6 39 4b 8c 3c ba 21 29 13 bc 38 bb 77 b8
       0.00046929976 -0.0007192536 -0.008981974 -5.906375e-05
000110 a6 09 e2 39 16 e2 99 bb 2a 65 40 bb c7 31 41 3b
       0.00043113268 -0.004696141 -0.0029357173 0.0029479132
000120 45 11 61 ba 0d 2b 14 b9 b2 78 1e b8 8e 56 e4 38
       -0.0008585642 -0.00014130418 -3.778254e-05 0.00010888009
000130 68 65 94 bb 38 1a 38 ba 61 25 f3 38 a2 2b 31 bb
       -0.00452869 -0.000702295 0.00011594105 -0.0027034064
000140 77 b8 2b bb 73 ae bf 3a 21 11 7b ba 34 b8 12 ba
       -0.002620248 0.0014624133 -0.00095774425 -0.00055969064
000150 11 af 8d 39 09 43 8c b9 76 64 52 bb 6e 49 02 39
       0.0002702405 -0.00026752826 -0.0032103336 0.00012425121
000160 dd 5a d2 39 8f 11 a0 ba 8c 2e a1 3b fd 94 ce bb
       0.0004012202 -0.0012212264 0.004918879 -0.006304382
000170 16 c9 4c 3b 93 79 f2 3a ce ad 53 ba 38 bd f2 3a
       0.0031247786 0.0018499367 -0.000807491 0.0018519526
000180 45 0a 16 3c 87 eb 41 ba ca d6 fb b9 59 0d a4 3b
       0.009157722 -0.0007397462 -0.0004803448 0.005006474

exp_avg_sq f4 [10, 10]
000000 28 48 09 39 b5 8f 2a 39 5b 5c 81 38 80 8b 8d 38
       0.00013092218 0.00016265998 6.168402e-05 6.749388e-05
000010 d2 36 1e 38 a9 d2 ad 38 7c 49 e2 39 ce 6d 6f 38
       3.772119e-05 8.288521e-05 0.0004316083 5.7084304e-05
000020 fb 6f 1f 38 57 74 60 39 da b9 f8 38 7e ba 12 39
       3.8012844e-05 0.00021405645 0.00011860179 0.00013993119
000030 61 ef 59 38 10 1d 78 38 9a 55 0a 38 b4 cd 96 38
       5.195977e-05 5.9154874e-05 3.2981487e-05 7.1908726e-05
000040 85 f6 c2 39 31 f2 5b 38 49 7d 17 38 fc 61 42 39
       0.00037186235 5.2439227e-05 3.6117886e-05 0.00018537784
000050 a0 24 a4 38 aa 06 bb 38 e8 df 0e 38 ba 21 d4 37
       7.826951e-05 8.918096e-05 3.4063967e-05 2.5288075e-05
000060 40 af 84 37 42 8f 23 38 e8 3a 66 39 0b dc c8 37
       1.5817233e-05 3.8995648e-05 0.00021956454 2.3944323e-05
000070 77 ef b1 37 6e c7 eb 38 97 c5 66 39 c8 08 7b 39
       2.1211554e-05 0.0001124282 0.00022008117 0.00023940497
000080 46 d8 b8 38 e0 69 b5 38 55 d8 47 38 05 d9 d3 38
       8.814088e-05 8.650473e-05 4.7646772e-05 0.00010101687
000090 9b d2 22 3a d2 f4 b0 38 cf 2b 7f 38 19 f5 a6 39
       0.0006211192 8.437935e-05 6.0837538e-05 0.000318446
0000a0 66 f6 2e 37 01 49 71 36 ea ab 34 36 f3 23 87 37
       1.0428577e-05 3.5954292e-06 2.6922157e-06 1.6109994e-05
0000b0 ef 0b e6 36 0c 6e 99 36 a4 a1 02 38 36 40 69 37
       6.8559234e-06 4.5725665e-06 3.1144955e-05 1.39028325e-05
0000c0 ea 80 87 36 b2 9a b2 36 0a 93 89 38 dd 86 a5 38
       4.038321e-06 5.3228223e-06 6.560057e-05 7.892933e-05
0000d0 dd e0 ee 37 fb 71 33 38 33 9a bc 37 94 9a 2c 38
       2.8476521e-05 4.278308e-05 2.2483151e-05 4.1151958e-05
0000e0 ef b2 5e 39 68 ed 11 38 08 6e b8 37 e8 75 d5 38
       0.00021238228 3.4791796e-05 2.1985747e-05 0.00010178593
0000f0 2b 30 e1 38 e2 b7 02 39 ef 50 30 38 92 b8 55 38
       0.00010737808 0.00012466268 4.2037045e-05 5.0955052e-05
000100 12 b8 e4 37 2a 5e 84 38 55 85 ab 39 8c 47 5e 38
       2.7265432e-05 6.31179e-05 0.00032715002 5.2995558e-05
000110 98 51 16 38 25 b4 34 39 d3 a4 40 38 ae f3 3a 38
       3.5838777e-05 0.00017233247 4.592987e-05 4.45728e-05
000120 90 8c 92 37 db 7f 7c 37 06 a1 0b 37 aa 58 99 37
       1.747001e-05 1.5050139e-05 8.322537e-06 1.8280309e-05
000130 3f 73 f4 38 d8 79 87 37 72 ae 58 37 43 8b 75 38
       0.00011656293 1.6149992e-05 1.29152195e-05 5.854225e-05
000140 d6 a5 67 37 4b 52 58 37 b4 1e c8 36 86 79 89 37
       1.3807285e-05 1.2893764e-05 5.964039e-06 1.6388261e-05
000150 96 05 09 37 71 7c 27 37 c6 da 50 38 8f fd 3d 37
       8.167137e-06 9.982949e-06 4.9794813e-05 1.1324314e-05
000160 e0 42 b8 36 e5 48 9e 37 65 6c 9d 38 60 17 d3 38
       5.4914126e-06 1.8869012e-05 7.5065334e-05 0.00010065618
000170 ad 6a 1c 38 47 fe 0e 38 72 7e ac 37 23 e2 59 38
       3.7292648e-05 3.4092252e-05 2.0562878e-05 5.1947438e-05
000180 f2 bc 85 39 86 38 fd 37 81 b7 b6 37 19 2d 06 39
       0.00025508512 3.0186271e-05 2.1781541e-05 0.00012796036

exp_avg f4 [10]
000000 98 44 ab 3c e5 60 91 bc f8 ea 65 3c 83 f4 bf 3c
       0.020906731 -0.017746398 0.014033072 0.023432022
000010 91 52 e5 3a e1 23 67 3c d3 4c 85 bc 8d af 0b bc
       0.001749592 0.014107675 -0.016271984 -0.008525741
000020 08 f6 bd bb 7a e9 7b 3c
       -0.0057971515 0.015375489

exp_avg_sq f4 [10]
000000 7f d5 95 3a 19 7b 81 3a 6d 67 15 3a bb cc df 3a
       0.0011431425 0.0009878605 0.00056993106 0.0017074564
000010 6e 1e 06 39 0a b4 19 3a d6 98 6d 3a 56 c8 a3 39
       0.00012790572 0.0005863315 0.0009063607 0.00031239045
000020 d3 a4 37 39 ea 4e 27 3a
       0.00017513642 0.00063823035

exp_avg f4 [5, 10]
000000 bc b7 22 3b 72 70 1b 3b 88 e3 65 3b 28 1d 06 bb
       0.0024828753 0.0023718146 0.0035078246 -0.0020464156
000010 0b de f2 3b d1 95 1d 3a f9 aa b3 bb e7 ec 0b 3c
       0.0074117235 0.0006011399 -0.005483028 0.008540369
000020 e8 63 04 bc 37 d6 b6 3b 27 52 91 ba 59 ee 16 ba
       -0.00808046 0.0055797356 -0.0011087105 -0.00057575625
000030 8e d5 e9 ba 70 38 10 3a cc 32 2f bb ca d5 f7 b9
       -0.0017840134 0.0005501574 -0.0026733158 -0.00047270796
000040 7e 27 1b 3b 1f 71 31 bb 7c bd 56 3b 5e c5 3a bb
       0.0023674662 -0.0027075482 0.003276675 -0.0028498988
000050 c3 48 4a ba 23 d8 19 39 72 a8 8b ba ac 26 7a ba
       -0.0007716531 0.00014671734 -0.0010655059 -0.0009542506
000060 ee a1 83 b9 a9 f3 84 ba ac 45 8d 3a cf 3b 21 3a
       -0.00025106914 -0.0010143417 0.001077821 0.0006150575
000070 78 5a 3b 3b 40 a1 e0 ba ab 69 6b bb 89 50 2f bb
       0.002858786 -0.00171379 -0.0035921137 -0.0026750884
000080 7f 8f ae bb c0 f0 64 3b 78 c1 20 bc 20 77 2e ba
       -0.0053271647 0.0034933537 -0.009811752 -0.0006655324
000090 9d 4c d0 3b c5 5b 2c bc a2 f8 1a 3c 81 e4 d7 bb
       0.0063567893 -0.010519926 0.009458693 -0.006588519
0000a0 5b 3b d0 b9 35 cd 00 3a 81 ca 86 39 98 ec ae 39
       -0.00039717075 0.0004913391 0.0002570935 0.00033364142
0000b0 44 38 b8 b9 c5 d2 be 39 f5 d3 c9 b8 58 26 07 ba
       -0.00035137136 0.0003639666 -9.623907e-05 -0.0005155555
0000c0 28 de 3f ba 0d 3c 2a 36
       -0.00073191756 2.5366928e-06

exp_avg_sq f4 [5, 10]
000000 5a 28 81 38 b3 e0 bf 38 9e 54 cf 38 f1 0f c3 38
       6.1587154e-05 9.149443e-05 9.88629e-05 9.301294e-05
000010 39 e2 71 39 ec df 74 37 4e d5 a5 38 31 2f bc 39
       0.00023067826 1.4595669e-05 7.907544e-05 0.00035893315
000020 0f ce 74 39 28 33 b2 38 60 38 fe 37 be 2e c7 37
       0.00023346416 8.49723e-05 3.0305411e-05 2.3744415e-05
000030 89 27 95 38 2c 67 00 38 a4 07 82 38 da 09 a7 37
       7.112238e-05 3.0613664e-05 6.200306e-05 1.9912539e-05
000040 fb f0 d6 37 65 00 94 38 21 c4 bd 38 46 a3 3d 38
       2.5623003e-05 7.0572634e-05 9.048754e-05 4.521317e-05
000050 7e 67 4b 37 c4 2e 06 37 08 b5 21 38 4d 42 0d 37
       1.2123839e-05 7.997911e-06 3.855399e-05 8.419692e-06
000060 35 83 96 37 59 07 1c 37 6c 36 85 37 18 5c aa 37
       1.7942491e-05 9.300035e-06 1.5880178e-05 2.0308464e-05
000070 f0 82 80 38 2c 0d f3 37 14 37 ac 38 22 51 c1 38
       6.1279046e-05 2.8973991e-05 8.211858e-05 9.218069e-05
000080 38 04 c3 38 e7 8d d2 38 e6 68 75 39 0e 9b 7d 37
       9.2991104e-05 0.00010040012 0.00023404098 1.5116077e-05
000090 d5 c1 bf 38 1b ff be 39 43 0c a7 39 6f 6f cd 38
       9.143694e-05 0.00036429692 0.00031861858 9.795918e-05
0000a0 76 4d c0 36 04 3c 5e 37 39 67 50 37 b5 36 0c 37
       5.7310635e-06 1.3246205e-05 1.24217995e-05 8.357388e-06
0000b0 ef bd 85 37 a1 50 67 36 da 08 2e 37 9f e7 1a 38
       1.594328e-05 3.4468615e-06 1.0373269e-05 3.6932175e-05
0000c0 52 20 fb 37 4f 9b 41 37
       2.9936582e-05 1.1539857e-05

exp_avg f4 [5]
000000 40 a0 9e bc dd 68 09 3c 33 4d 85 3b 54 d2 c1 3c
       -0.019363523 0.008386818 0.0040680408 0.023659863
000010 34 45 4b ba
       -0.00077541475

exp_avg_sq f4 [5]
000000 36 8b c7 3a a3 76 1b 3a 26 c7 cd 39 1e 60 d6 3a
       0.0015223983 0.0005930459 0.00039249024 0.001635555
000010 3b b4 6b 39
       0.00022478488

exp_avg f4 [12, 5]
000000 36 98 83 ba 11 d5 44 bb 68 90 91 bb 93 6f 2b 39
       -0.0010039869 -0.0030034224 -0.0044422634 0.00016349395
000010 33 06 75 bb 5e 7e 8d 3a 71 14 18 bb 15 f9 14 bb
       -0.0037387728 0.0010795107 -0.0023205543 -0.0022731472
000020 0d 40 c2 ba b4 c5 69 ba 4e 89 d4 3a c5 07 a4 ba
       -0.0014820114 -0.00089177047 0.0016215236 -0.0012514523
000030 bb 57 4a ba f8 2e df ba f8 6c e1 39 9b bd ac b9
       -0.00077187613 -0.0017027548 0.00042996532 -0.00032947664
000040 55 74 c0 3a de 83 01 3b 4b 88 5f 3a 60 bc 04 3b
       0.0014683107 0.0019762437 0.0008527084 0.0020253882
000050 be 9c d6 3a 2d 1d cb bb 32 35 ef bb 0b 46 1b bb
       0.0016373617 -0.0061985464 -0.0073000425 -0.0023692872
000060 3f 89 7d bb f4 fd 60 b8 88 67 83 38 8c ec 82 38
       -0.0038686541 -5.3642274e-05 6.265851e-05 6.242943e-05
000070 3f 88 66 38 29 75 4d 37 98 64 90 3a b5 d2 ba b8
       5.4963162e-05 1.2246231e-05 0.0011016307 -8.9084184e-05
000080 a3 dd d3 39 54 9e 3b ba 82 03 39 3a 00 00 00 00
       0.00040410188 -0.00071570766 0.00070577126 0.0
000090 00 00 00 00 00 00 00 00 00 00 00 00 00 00 00 00
       0.0 0.0 0.0 0.0
0000a0 63 7c 1a ba eb 21 13 3a 32 dd b6 39 74 b8 46 3a
       -0.0005893169 0.0005612659 0.00034878548 0.0007580586
0000b0 17 ec b1 b9 38 00 59 3a 94 12 fd 38 9a 38 5d 3a
       -0.0003393597 0.00082779257 0.000120674405 0.0008438915
0000c0 bb b6 34 ba ac eb c4 3a 7d 37 25 3a 48 db 7f bb
       -0.0006893684 0.0015023849 0.0006302519 -0.0039040614
0000d0 54 b1 b3 bb 0a 2f 85 ba ed 65 a7 bb 61 10 67 3b
       -0.0054837856 -0.0010161113 -0.005108586 0.0035257565
0000e0 93 ea 2f bc 7c 62 49 bc c4 18 a3 bb 1d 68 e4 bb
       -0.010737079 -0.012291547 -0.0049773175 -0.006970419

exp_avg_sq f4 [12, 5]
000000 0e 25 b1 38 82 50 e3 38 a9 57 2b 39 76 a3 68 38
       8.44692e-05 0.00010839199 0.00016340487 5.5465345e-05
000010 a2 e7 fd 38 da 0d 9d 37 34 99 ad 37 3b 6f f8 37
       0.00012107125 1.8722309e-05 2.0694548e-05 2.96157e-05
000020 70 3f 4d 37 88 03 aa 37 ae ff be 37 8d 26 b5 38
       1.2233722e-05 2.0267224e-05 2.2768825e-05 8.637933e-05
000030 aa b1 c7 38 be 71 8c 37 be 72 20 38 cb b0 1c 38
       9.522152e-05 1.6742266e-05 3.8253835e-05 3.735795e-05
000040 3a bb 62 38 24 d8 a0 38 94 b3 ba 37 02 c4 4a 38
       5.4056967e-05 7.669654e-05 2.225655e-05 4.83431e-05
000050 b2 de 95 38 52 d9 16 39 60 e2 56 39 12 b2 5a 38
       7.146354e-05 0.00014386073 0.00020492962 5.214109e-05
000060 51 e8 d8 38 84 37 14 35 f9 b0 a9 35 63 76 b4 35
       0.00010342955 5.521508e-07 1.2642987e-06 1.34455e-06
000070 9e 83 24 35 f9 97 57 34 8e 26 a1 36 c1 2b 8c 37
       6.128629e-07 2.0078723e-07 4.8026623e-06 1.6709675e-05
000080 8f 1b ac 37 87 0c 96 36 9e a1 1d 37 00 00 00 00
       2.051683e-05 4.4718067e-06 9.395559e-06 0.0
000090 00 00 00 00 00 00 00 00 00 00 00 00 00 00 00 00
       0.0 0.0 0.0 0.0
0000a0 12 dd 76 36 87 fc 59 37 98 39 5b 37 ff d1 91 36
       3.6785536e-06 1.2993004e-05 1.3066827e-05 4.3457835e-06
0000b0 fe 37 a1 36 1c 76 ab 37 40 e3 53 38 b9 75 7d 38
       4.8046923e-06 2.0439787e-05 5.0517963e-05 6.042954e-05
0000c0 d1 35 8c 37 1d aa 01 38 0a 90 01 38 d4 82 eb 38
       1.671436e-05 3.0914427e-05 3.0890144e-05 0.00011230042
0000d0 0a bd 05 39 d1 2a be 37 69 f2 89 38 c3 27 30 39
       0.00012754291 2.2669703e-05 6.5778215e-05 0.0001679948
0000e0 be 96 ca 39 19 30 e8 39 e4 e2 0c 39 c3 7b 45 39
       0.00038640754 0.00044286324 0.00013435964 0.00018833489

exp_avg f4 [12]
000000 ec bd ad 3b 34 8f 1c 3b ce 23 de 39 c4 43 63 bb
       0.0053021815 0.0023889067 0.00042369816 -0.0034677843
000010 ec 5a 0e 3c d2 0d 95 b8 3d 80 d4 ba 00 00 00 00
       0.00868867 -7.107448e-05 -0.0016212534 0.0
000020 96 60 dc 39 ad ac 8d ba f8 ac 01 3c 5e 60 88 3c
       0.00042033632 -0.0010808908 0.007914774 0.016647514

exp_avg_sq f4 [12]
000000 4f f6 3f 3a ef 05 28 39 f3 08 d5 39 58 a0 ca 39
       0.00073227746 0.00016023939 0.00040633194 0.00038647908
000010 59 8d 43 3a 15 b2 31 36 f7 eb 9a 38 00 00 00 00
       0.0007459722 2.6478713e-06 7.387244e-05 0.0
000020 ae 0e 35 38 7b 14 4d 39 03 0d 04 3a 56 0c d7 3a
       4.3167434e-05 0.00019557953 0.0005037339 0.0016406875

weight f4 [10, 11]
000000 b0 63 6e 3e 8a c9 c4 be b3 46 cb 3d d3 05 1f be
       0.23280215 -0.38435012 0.09925594 -0.15529566
000010 70 bd 1b bd 9d 45 08 be 11 c2 3f be 52 90 72 be
       -0.03802246 -0.13307805 -0.18726374 -0.23687866
000020 f6 d9 bb be df 68 3e 3e 29 07 96 be f5 83 9b be
       -0.36689728 0.18594693 -0.29302338 -0.30374113
000030 a2 16 87 be 0d c1 33 3e 9f 5e 40 be 8b 0c a9 bd
       -0.26384455 0.17554112 -0.18786095 -0.082543455
000040 6b 34 96 be c8 12 0a 3e 5e 7c 8d 3e 64 d1 08 be
       -0.29336867 0.13483727 0.27633947 -0.13361126
000050 57 4d 73 be 52 fa 24 be f5 c0 85 3e 9f 15 1f bf
       -0.23759972 -0.16111115 0.26123777 -0.62142366
000060 e4 e9 4d be 78 34 81 3d 7d 31 31 bd 2e a1 d4 bd
       -0.20108753 0.06308836 -0.043260086 -0.10382305
000070 b5 ce e4 3c 2c 59 8c 3e 94 54 dd 3d 7e b3 8a be
       0.027930597 0.27411783 0.108071476 -0.27090067
000080 54 f5 51 be d1 fe 61 be 0d 00 21 bf 0b f2 40 3e
       -0.20503742 -0.22069861 -0.628907 0.18842332
000090 26 1e 60 3d bf 21 3a be 1c 1e 84 3e eb 73 16 bd
       0.05471625 -0.18176936 0.25804222 -0.03673164
0000a0 6e ac 6a be ab 11 8d 3e 5a e2 7f be 70 0c b0 3e
       -0.22917339 0.27552542 -0.2498869 0.3438449
0000b0 b9 73 83 3b 40 66 ac 3e b6 eb 0f be 8b aa 21 3e
       0.004011598 0.3367176 -0.1405476 0.15787713
0000c0 45 6c 69 3e 7a bc 43 3e 19 2d 75 be 94 89 4b 3e
       0.22795208 0.19114867 -0.23942985 0.198767
0000d0 2b 2b 1d 3d 57 7d 25 be 31 01 90 be 0f 6b 44 3e
       0.038371246 -0.16161095 -0.2812591 0.19181465
0000e0 ee 0a 24 3f a4 52 42 3e 5e 7b 5e 3e 20 44 3b be
       0.6407918 0.18976837 0.21726748 -0.18287706
0000f0 ae ee 69 bd 59 8b 0d 3e d7 a2 03 be 14 26 bc b8
       -0.05711239 0.13822688 -0.12855087 -8.971631e-05
000100 c1 5d 4c 3d c4 7c 98 3e 2d 20 73 3e 5e dc b6 be
       0.0498941 0.2978269 0.23742743 -0.35715002
000110 7d 2b ca 3e cd 27 6a 3c f8 b5 50 3e 66 5d 10 3e
       0.39486304 0.014291716 0.20381916 0.14098129
000120 41 44 4e 3c e3 2e 61 be 9b fb 86 be b9 ff 21 be
       0.012589515 -0.21990542 -0.26363835 -0.15820207
000130 fa 73 80 3e 38 b6 91 be af a2 7a be 0b 0b a6 3e
       0.25088483 -0.28459334 -0.24476121 0.324303
000140 4b 91 15 be 8b 8e ec 3d 64 2d 87 3e 89 8d 58 3e
       -0.14606206 0.115506254 0.26401818 0.21147741
000150 da 28 84 bd d2 a2 82 be 96 8b 75 3e 44 a3 fd 3d
       -0.06453104 -0.25514847 0.23979029 0.12384656
000160 5b 87 03 3d ca 93 45 bf ce f8 ae 3e fa c8 95 be
       0.032111507 -0.77178633 0.34174198 -0.29254895
000170 c1 14 bc 3d fc d6 68 3e b0 0e 59 3d b2 43 04 3e
       0.09183646 0.2273826 0.052992523 0.12916449
000180 d0 89 56 3e b1 2f 6e 3e e2 e6 4f 3e 5b 22 2b 3e
       0.20951009 0.2326038 0.20302919 0.16712324
000190 5a c5 e9 3e ab d9 b9 3d 03 d3 a3 3e 71 8f 97 3e
       0.4565838 0.0907472 0.31996927 0.29601625
0001a0 67 f4 a6 3d c7 13 d1 bd fc 80 97 3e 2d 15 4b be
       0.08152085 -0.1020885 0.29590595 -0.19832297
0001b0 48 32 e2 bc 32 f1 6e 3d
       -0.027611867 0.05833549

bias f4 [10]
000000 05 c2 c5 3e 9a 07 7b bc f8 3b 72 3e 09 c0 ae 3e
       0.38624588 -0.015321637 0.23655689 0.34130886
000010 ed cd 17 be 4b 88 c5 bd 87 05 bf 3e 44 98 0d 3e
       -0.14824648 -0.096451364 0.37308905 0.13827616
000020 eb e1 a5 bd 9f 07 20 bd
       -0.08099731 -0.039069768

weight f4 [10, 10]
000000 a1 fe 6a be 96 5d 86 be 97 3e 04 bf 13 28 22 3c
       -0.22948696 -0.26243275 -0.51658005 0.00989725
000010 9c 4e d3 3e 24 8a 34 bc 13 ca 96 be 43 5c 8d be
       0.41270912 -0.011019263 -0.29451045 -0.27609453
000020 37 b3 14 bf 78 4e 5f 3e c2 ea 32 3e a5 ca bc 3e
       -0.5808596 0.21807277 0.17472365 0.36873356
000030 41 5f 1f 3d 49 3a f5 3e 11 81 44 3b 6b ab b7 bd
       0.0389092 0.4789603 0.0029984156 -0.08968242
000040 39 30 ee 3d 6d 2c 74 3d 23 55 ef 3e 21 f9 32 be
       0.116302915 0.05961268 0.46744642 -0.17477848
000050 74 52 88 3e 2d de 96 be 58 c1 48 be a1 a0 e4 be
       0.26625407 -0.29466382 -0.19605005 -0.446538
000060 9d 22 90 3d a7 bb 1f 3e 61 0d 0a bd 9c 92 b7 be
       0.07037852 0.15598927 -0.033704165 -0.35854042
000070 b3 e0 86 be c3 b1 54 bd 89 1b a1 be ba 30 22 be
       -0.26343307 -0.05192734 -0.3146632 -0.158389
000080 38 04 e4 be 97 8c 95 be b4 88 08 bd 1e 03 05 3f
       -0.4453447 -0.29208824 -0.033333495 0.5195788
000090 e0 6f 45 bd 07 5f af be 0f 69 48 be 7d 8b 71 3e
       -0.048202395 -0.34252188 -0.19571327 0.23588367
0000a0 96 6b b6 3d a1 85 45 3e 2a 8e bf 3d 7f 75 90 be
       0.08907239 0.19289257 0.093532875 -0.28214642
0000b0 91 41 b7 3e a0 57 c1 bd 17 a0 ae be 8c 9a 91 bb
       0.3579221 -0.09440541 -0.34106514 -0.0044434723
0000c0 61 2d 01 3e 37 38 1c be 5f f0 f2 bd 85 46 f6 3d
       0.12614967 -0.1525582 -0.118622534 0.12025169
0000d0 e5 ca 01 be fc 4a 1c bd 7a c4 d6 3c 6c 56 a3 3e
       -0.12675054 -0.03815745 0.026216734 0.31901872
0000e0 f9 82 52 3e 1f 50 6a 3d 6d ef 38 be 9a 36 3b 3e
       0.20557775 0.057205316 -0.18060084 0.18282548
0000f0 7a 09 e1 3d d0 ff b5 bd 82 4c a9 3e dc d6 b3 3e
       0.10988136 -0.08886683 0.33066183 0.35124862
000100 68 a9 2d bd 5d 70 b4 be c2 85 2c 3e b3 ab da bc
       -0.042397887 -0.35241976 0.168479 -0.0266932
000110 60 d5 92 3e 7c 6c a7 be 97 2e 25 3e 6c 20 e0 3e
       0.28678417 -0.32699955 0.16131054 0.43774736
000120 03 02 50 be e3 22 be 3d 9a 3e a8 bd 30 2c 19 bf
       -0.20313267 0.09283998 -0.08215065 -0.5983305
000130 31 76 88 be 68 e2 47 3e 79 f7 75 3e 4b 97 07 bc
       -0.26652673 0.19519961 0.24020185 -0.008275817
000140 13 20 02 3f fc ad 61 3e 60 de 58 3d 78 4f aa bd
       0.5083019 0.22039026 0.05294645 -0.08315939
000150 9d 19 70 be 67 69 90 be 07 d8 2b 3e d9 b8 8a 3e
       -0.2344727 -0.28205416 0.16781627 0.27094153
000160 87 4d bf 3e 36 25 8f 3e bf 8f ca bd cb d0 23 be
       0.37363836 0.27958077 -0.09890699 -0.15997617
000170 34 64 43 be 8a 20 a9 be df 2d 9c 3e 37 a0 e8 3e
       -0.19081193 -0.33032638 0.30503747 0.45434734
000180 00 61 56 be 29 d5 9b 3d ad 10 4c be 10 ef c8 3e
       -0.2093544 0.076090164 -0.19928236 0.3924489

bias f4 [10]
000000 15 79 ce 3c 87 7a 8b bd dd 53 9d be d3 ae 1c 3e
       0.02520422 -0.068104796 -0.30728045 0.15301065
000010 79 fd 8d bd 23 22 16 be 05 d6 21 3e 23 3c 08 be
       -0.06933112 -0.1466146 0.15804298 -0.1330419
000020 5f ce 58 3e 8c e9 99 be
       0.21172474 -0.30060995

weight f4 [5, 10]
000000 8c c2 b7 be b7 a3 d2 3e cd 63 5a be b6 a0 ed be
       -0.35890615 0.4114053 -0.21327133 -0.46411675
000010 0d fd d7 bd 08 56 8d be 30 12 ae 3e ce 9c 47 3e
       -0.105463125 -0.276047 0.3399825 0.1949341
000020 f9 5e 8b 3e 21 67 9f be 40 f0 78 3e f7 fd b5 be
       0.27220896 -0.3113337 0.24310398 -0.35545322
000030 20 00 43 3d 89 06 ca 3e 30 63 8e 3e 00 fc 9a 3e
       0.04760754 0.3945811 0.2781005 0.30270386
000040 c5 95 e6 be 10 39 6f be ce 89 5e be 8a b1 69 3e
       -0.4503614 -0.23361611 -0.21732256 0.22821632
000050 06 a6 c5 3e f1 cc 8e be 48 56 2e 3e 71 71 cf 3e
       0.38603228 -0.27890733 0.17025101 0.40516236
000060 a5 61 c1 3e 27 46 30 3e 96 42 b9 be 2d ef 1c 3e
       0.3776981 0.17214261 -0.36183614 0.15325613
000070 4f 17 ef be ab 81 c5 3d e3 17 f6 3e e2 57 81 be
       -0.4669747 0.09643873 0.480651 -0.25262362
000080 63 8f c2 3e 44 2c c8 3e f6 f1 25 be 1f 56 6b 3e
       0.3800002 0.39096272 -0.16205582 0.22982071
000090 98 3e 67 be 19 69 81 be 25 96 5c 3d fb f7 bc 3e
       -0.22582471 -0.25275496 0.053854126 0.36907944
0000a0 e5 eb 92 3e d2 24 cc 3d df ff f4 bd a6 96 e6 be
       0.28695598 0.099679604 -0.11962866 -0.4503681
0000b0 43 70 d6 3e 70 d7 70 3d 96 e0 9d 3d 20 27 f0 3e
       0.41882524 0.058799207 0.07708852 0.4690485
0000c0 6e 3a c7 be 69 2b 8d 3e
       -0.38911766 0.27572182

bias f4 [5]
000000 71 2b 51 be bc a3 a4 be f7 0b 74 be 37 d1 a8 bd
       -0.20426728 -0.3215617 -0.23832689 -0.082430296
000010 90 b3 c3 3d
       0.09555733

weight f4 [12, 5]
000000 11 2f a9 be a8 3a 24 be ce 4c 05 bf 4a 9f 2d 3f
       -0.3304372 -0.16038 -0.5207032 0.6782118
000010 2f 14 86 be 14 11 d0 be e9 da 6e 3e 05 f1 5b be
       -0.26187274 -0.4063803 0.23325695 -0.2147866
000020 e1 b3 88 3c 7a 72 b0 be f0 62 ad 3d ed 2c 08 3f
       0.016687335 -0.3446234 0.084661365 0.5319355
000030 8a 28 00 3f cf da 08 bd b7 44 c9 bb a1 1a ef be
       0.5006186 -0.033411797 -0.0061422247 -0.46700004
000040 b5 bb d6 bd 4c 52 ca be cd 2a af be f9 3d 78 be
       -0.10485021 -0.39515913 -0.34212342 -0.2424239
000050 11 6f ba be 3e 7f ca bd 68 09 8c 3e ec 2c 1a 3f
       -0.36412862 -0.09887551 0.27350926 0.60224795
000060 0e 72 b5 be e5 28 1b 3d 47 66 ae 3d 9c 83 dd 3d
       -0.3543858 0.037880797 0.085156016 0.10816118
000070 bc 73 89 3d b0 1e e2 be c1 c8 21 bf f5 52 55 be
       0.06711528 -0.44164038 -0.6319695 -0.20832427
000080 b8 36 b0 3e fb 88 12 3f bf 2a d2 3e 38 ab e1 3d
       0.34416747 0.57240266 0.41048238 0.110189855
000090 80 1b af 3d 5b df 86 be 53 38 aa be d4 c7 8c 3e
       0.08550167 -0.26342282 -0.33246097 0.27496207
0000a0 f5 61 8f 3e ae 6b d1 3e f6 62 2f be 48 59 8c 3d
       0.28004423 0.40902466 -0.17127594 0.068529665
0000b0 e1 bd 35 be a4 29 51 3e 23 81 a9 3e d6 ba 34 3e
       -0.17748214 0.20426041 0.33106336 0.17649397
0000c0 f1 78 ba 3d ae ef e2 be e0 de c2 be 6d 69 e4 3e
       0.09105099 -0.44323486 -0.38060665 0.44611683
0000d0 e1 5f 55 be f8 d4 cd 3e fc 0d c5 3e d5 81 41 bf
       -0.20837356 0.40201545 0.38487232 -0.7558873
0000e0 1c 93 22 3f f6 f8 2c 3f 82 f6 2d 3f c4 fd d4 3d
       0.6350572 0.67567384 0.67954266 0.103999645

bias f4 [12]
000000 db c6 09 be da e7 83 3e 1c e2 17 3e f7 3b 05 be
       -0.13454764 0.25762826 0.14832348 -0.13011156
000010 3c c7 db 3e 9a 26 9f bd 91 e8 5a 3d 68 42 d8 3d
       0.4292544 -0.077710345 0.05344445 0.10559541
000020 17 fe f0 be 36 08 ba 3e 6a c7 fa bc 97 19 34 be
       -0.47068855 0.3633439 -0.030612666 -0.17587887

concepts f4 [35, 12, 1]
000000 00 00 00 00 00 00 00 00 00 00 00 00 00 00 00 00
       0.0 0.0 0.0 0.0
000010 00 00 00 00 00 00 00 00 00 00 00 00 00 00 00 00
       0.0 0.0 0.0 0.0
000020 00 00 00 00 00 00 80 3f 00 00 80 3f 00 00 80 3f
       0.0 1.0 1.0 1.0
000030 00 00 00 00 00 00 00 00 00 00 00 00 00 00 00 00
       0.0 0.0 0.0 0.0
000040 00 00 00 00 00 00 00 00 00 00 80 3f 00 00 00 00
       0.0 0.0 1.0 0.0
000050 00 00 00 00 00 00 00 00 00 00 80 3f 00 00 80 3f
       0.0 0.0 1.0 1.0
000060 00 00 80 3f 5f 1d 26 3e 00 00 00 00 00 00 80 3f
       1.0 0.16222142 0.0 1.0
000070 00 00 00 00 00 00 00 00 00 00 00 00 00 00 00 00
       0.0 0.0 0.0 0.0
000080 00 00 00 00 00 00 00 00 00 00 00 00 00 00 80 3f
       0.0 0.0 0.0 1.0
000090 00 00 80 3f f5 eb 6a 3e 00 00 80 3f 00 00 00 00
       1.0 0.22941573 1.0 0.0
0000a0 00 00 00 00 00 00 00 00 00 00 00 00 00 00 00 00
       0.0 0.0 0.0 0.0
0000b0 00 00 00 00 00 00 00 00 00 00 00 00 00 00 80 3f
       0.0 0.0 0.0 1.0
0000c0 00 00 00 00 f5 eb 6a 3e 00 00 00 00 00 00 00 00
       0.0 0.22941573 0.0 0.0
0000d0 00 00 00 00 00 00 00 00 00 00 00 00 00 00 00 00
       0.0 0.0 0.0 0.0
0000e0 00 00 00 00 00 00 00 00 00 00 80 3f 00 00 80 3f
       0.0 0.0 1.0 1.0
0000f0 00 00 80 3f 00 00 00 00 00 00 00 00 00 00 80 3f
       1.0 0.0 0.0 1.0
000100 00 00 00 00 00 00 00 00 00 00 80 3f 00 00 00 00
       0.0 0.0 1.0 0.0
000110 00 00 00 00 00 00 00 00 00 00 00 00 00 00 80 3f
       0.0 0.0 0.0 1.0
000120 00 00 80 3f 5f 1d 26 3f 00 00 00 00 00 00 00 00
       1.0 0.64888567 0.0 0.0
000130 00 00 80 3f 00 00 00 00 00 00 00 00 00 00 00 00
       1.0 0.0 0.0 0.0
000140 00 00 00 00 00 00 00 00 00 00 00 00 00 00 80 3f
       0.0 0.0 0.0 1.0
000150 00 00 80 3f 5f 1d a6 3e 00 00 00 00 00 00 00 00
       1.0 0.32444283 0.0 0.0
000160 00 00 00 00 00 00 00 00 00 00 00 00 00 00 00 00
       0.0 0.0 0.0 0.0
000170 00 00 00 00 00 00 00 00 00 00 00 00 00 00 80 3f
       0.0 0.0 0.0 1.0
000180 00 00 80 3f 00 00 00 00 00 00 00 00 00 00 80 3f
       1.0 0.0 0.0 1.0
000190 00 00 00 00 00 00 00 00 00 00 00 00 00 00 00 00
       0.0 0.0 0.0 0.0
0001a0 00 00 00 00 00 00 80 3f 00 00 80 3f 00 00 80 3f
       0.0 1.0 1.0 1.0
0001b0 00 00 00 00 00 00 00 00 00 00 00 00 00 00 80 3f
       0.0 0.0 0.0 1.0
0001c0 00 00 80 3f 00 00 00 00 00 00 00 00 00 00 00 00
       1.0 0.0 0.0 0.0
0001d0 00 00 00 00 00 00 00 00 00 00 00 00 00 00 80 3f
       0.0 0.0 0.0 1.0
0001e0 00 00 00 00 5f 1d 26 3e 00 00 00 00 00 00 00 00
       0.0 0.16222142 0.0 0.0
0001f0 00 00 00 00 00 00 00 00 00 00 80 3f 00 00 00 00
       0.0 0.0 1.0 0.0
000200 00 00 00 00 00 00 00 00 00 00 80 3f 00 00 80 3f
       0.0 0.0 1.0 1.0
000210 00 00 80 3f 0d dc 8f 3e 00 00 00 00 00 00 80 3f
       1.0 0.28097573 0.0 1.0
000220 00 00 80 3f 00 00 00 00 00 00 00 00 00 00 00 00
       1.0 0.0 0.0 0.0
000230 00 00 00 00 00 00 00 00 00 00 00 00 00 00 80 3f
       0.0 0.0 0.0 1.0
000240 00 00 80 3f 5f 1d 26 3e 00 00 00 00 00 00 80 3f
       1.0 0.16222142 0.0 1.0
000250 00 00 80 3f 00 00 00 00 00 00 00 00 00 00 00 00
       1.0 0.0 0.0 0.0
000260 00 00 00 00 00 00 00 00 00 00 00 00 00 00 80 3f
       0.0 0.0 0.0 1.0
000270 00 00 80 3f 0d dc 8f 3e 00 00 00 00 00 00 80 3f
       1.0 0.28097573 0.0 1.0
000280 00 00 00 00 00 00 00 00 00 00 00 00 00 00 00 00
       0.0 0.0 0.0 0.0
000290 00 00 00 00 00 00 00 00 00 00 00 00 00 00 80 3f
       0.0 0.0 0.0 1.0
0002a0 00 00 00 00 5f 1d 26 3e 00 00 00 00 00 00 00 00
       0.0 0.16222142 0.0 0.0
0002b0 00 00 00 00 00 00 00 00 00 00 80 3f 00 00 00 00
       0.0 0.0 1.0 0.0
0002c0 00 00 00 00 00 00 00 00 00 00 80 3f 00 00 80 3f
       0.0 0.0 1.0 1.0
0002d0 00 00 80 3f c8 bf db 3e 00 00 00 00 00 00 00 00
       1.0 0.42919755 0.0 0.0
0002e0 00 00 80 3f 00 00 00 00 00 00 00 00 00 00 00 00
       1.0 0.0 0.0 0.0
0002f0 00 00 00 00 00 00 00 00 00 00 00 00 00 00 80 3f
       0.0 0.0 0.0 1.0
000300 00 00 00 00 00 00 00 00 00 00 00 00 00 00 80 3f
       0.0 0.0 0.0 1.0
000310 00 00 00 00 00 00 00 00 00 00 00 00 00 00 00 00
       0.0 0.0 0.0 0.0
000320 00 00 00 00 00 00 00 00 00 00 00 00 00 00 80 3f
       0.0 0.0 0.0 1.0
000330 00 00 00 00 00 00 00 00 00 00 00 00 00 00 80 3f
       0.0 0.0 0.0 1.0
000340 00 00 80 3f 00 00 00 00 00 00 00 00 00 00 00 00
       1.0 0.0 0.0 0.0
000350 00 00 00 00 00 00 00 00 00 00 00 00 00 00 80 3f
       0.0 0.0 0.0 1.0
000360 00 00 00 00 00 00 00 00 00 00 00 00 00 00 80 3f
       0.0 0.0 0.0 1.0
000370 00 00 00 00 00 00 00 00 00 00 00 00 00 00 00 00
       0.0 0.0 0.0 0.0
000380 00 00 80 3f 00 00 80 3f 00 00 00 00 00 00 80 3f
       1.0 1.0 0.0 1.0
000390 00 00 80 3f 5f 1d 26 3e 00 00 00 00 00 00 00 00
       1.0 0.16222142 0.0 0.0
0003a0 00 00 00 00 00 00 00 00 00 00 80 3f 00 00 00 00
       0.0 0.0 1.0 0.0
0003b0 00 00 00 00 00 00 00 00 00 00 00 00 00 00 80 3f
       0.0 0.0 0.0 1.0
0003c0 00 00 80 3f 5f 1d 26 3e 00 00 00 00 00 00 00 00
       1.0 0.16222142 0.0 0.0
0003d0 00 00 80 3f 00 00 00 00 00 00 00 00 00 00 00 00
       1.0 0.0 0.0 0.0
0003e0 00 00 00 00 00 00 00 00 00 00 80 3f 00 00 80 3f
       0.0 0.0 1.0 1.0
0003f0 00 00 80 3f 00 00 00 00 00 00 00 00 00 00 80 3f
       1.0 0.0 0.0 1.0
