our_models/compas/unreg_Hinput_Th1_Reg1e-02_LR0.001/model_best.pth.tar (torch_old, 24602 bytes, 34 tensors)

parametrizer.linear1.weight f4 [10, 11]
00000000: d4d6 4b3e 6f2e aebe dfe3 d63d 85ef 1bbe
00000010: 2ad3 f4bc ad41 f3bd c321 27be 5290 72be
00000020: a30c 9cbe fd5d 3e3e a7b7 8bbe c483 99be
00000030: b46d 6dbe b81e 3d3e 3d39 3ebe 7196 8dbd
00000040: f4be 8abe cd62 193e 5e7c 8d3e 89bc c7bd
00000050: 730c 78be 3013 10be ac25 7a3e 9461 15bf
00000060: c2ef 50be a678 733d 5844 4fbd aefa adbd
00000070: b69b 3e3d 2c59 8c3e 8373 253e 0dbd 89be
00000080: bdf3 59be 44f8 69be 6f4b 19bf e937 463e
00000090: 46d2 213d e91c 48be 28e2 923e 8d96 d2bc
000000a0: 6eac 6abe e6dd 953e 6c7e 7ebe 325c aa3e
000000b0: 2dee d03c 26e0 9d3e 0ed7 12be 1249 293e
000000c0: 06a7 693e ca22 373e d2c4 89be 9489 4b3e
000000d0: 8e14 3abc 8624 20be 6d95 95be 3970 453e
000000e0: 1e85 1a3f 4a9a 403e 9bba 5e3e 752e 3abe
000000f0: e5a2 a1bd 96b1 fb3d d7a2 03be ac95 37bd
00000100: d63f 743d e0eb 923e 397e 823e 7c88 a7be
00000110: 24b2 be3e b281 333d f33c 553e 681b 203e
00000120: d4f5 293d e32e 61be f982 50be 328b 11be
00000130: 0a26 933e 9f7d 95be 3d9b 62be bb46 a73e
00000140: f9ab 1cbe 38a1 de3d d0a5 913e 3bff 673e
00000150: da28 84bd 351d 56be fbcf 813e 7960 ed3d
00000160: 17b7 073c e183 3ebf dd94 b03e b6bd 96be
00000170: b614 b03d 543f 7c3e cb37 693d b243 043e
00000180: 374c 853e b548 733e 0f5f 543e d21b 263e
00000190: f993 d93e 4a38 b33d a0b0 963e 5923 973e
000001a0: 0792 7a3d da39 debd fc80 973e f12d 78be
000001b0: 1760 29bd ebb3 493d
0.19906169 -0.340198 0.10492682 -0.15228088 -0.029885847 -0.11877761 -0.16321473 -0.23687866
-0.3047839 0.18590541 -0.27288553 -0.29983342 -0.2318638 0.1846875 -0.18576522 -0.0691346
-0.2709881 0.14979096 0.27633947 -0.09752757 -0.24223499 -0.1406982 0.24428433 -0.5835202
-0.2040396 0.05944123 -0.050602287 -0.08495079 0.046535216 0.27411783 0.16157345 -0.26902047
-0.21284385 -0.22848612 -0.5988073 0.19357266 0.039507173 -0.19542278 0.2868817 -0.025706554
-0.22917339 0.29270858 -0.24852914 0.33273464 0.025504196 0.30835074 -0.1433985 0.1653178
0.2281762 0.17884365 -0.26907974 0.198767 -0.01135744 -0.15638933 -0.29215565 0.19281091
0.6035937 0.18808857 0.21750872 -0.18181784 -0.07892398 0.12289731 -0.12855087 -0.044820473
0.05963119 0.28695583 0.25486925 -0.32721317 0.37245286 0.04382486 0.20824032 0.15635455
0.041494206 -0.21990542 -0.20362462 -0.14213255 0.2873996 -0.29197404 -0.22129531 0.3267115
-0.15299977 0.10870594 0.28446817 0.22655956 -0.06453104 -0.20909579 0.2535399 0.11590666
0.008283398 -0.7441998 0.34488574 -0.29441613 0.085977 0.24633533 0.056937974 0.12916449
0.2603471 0.23758204 0.20739387 0.1622155 0.42495707 0.08750971 0.2943163 0.29519156
0.06117442 -0.10850878 0.29590595 -0.24236275 -0.041351404 0.04924385

parametrizer.linear1.bias f4 [10]
00000000: 2958 c23e 8d05 46bc ace6 6a3e 0c9f ab3e
00000010: 8ba0 11be 2493 c2bd cead bb3e eeab 093e
00000020: 3f7c b0bd a178 2fbd
0.37957886 -0.012086284 0.22939557 0.3351978 -0.14221399 -0.09500721 0.3665604 0.13444492
-0.08617448 -0.04283965

parametrizer.linear2.weight f4 [10, 10]
00000000: 7108 4abe 077f 88be 59e1 f7be 7ef0 803c
00000010: e925 d23e 4dfe c1bc bb86 93be 6623 92be
00000020: ab5d 10bf 467f 5c3e fff2 183e 9f29 bb3e
00000030: ed83 273c d7e8 f43e 9dba b8bb 4694 96bd
00000040: 7b5a e43d a8ba 8d3d 6729 ef3e 7207 31be
00000050: 4b8e 8a3e 570e 99be 6c29 43be c5da d6be
00000060: 8d4e 6d3d 6893 183e f406 dfbc cba9 b0be
00000070: f524 70be 1379 4abd 573e 98be a732 19be
00000080: 74e9 ddbe 74a8 92be ca27 f5bc 63b1 fd3e
00000090: ffde 40bd a03c acbe c22f 3bbe e4ee 6b3e
000000a0: 70a7 193e 9c40 4c3e 4f60 173e 0dc3 8ebe
000000b0: b594 b83e 0242 d9bd ee77 a4be f65c 7bbb
000000c0: 8707 ca3d 542f 1bbe 40b6 bdbd 51a8 ff3d
000000d0: 6ed5 ccbd 4020 d4bc 8ba5 a13c 7f50 9b3e
000000e0: 31fe 583e 3639 6e3d 9439 27be a64b 353e
000000f0: f9d1 af3d 0b0e c7bd 3585 9b3e 1dc5 af3e
00000100: 6b72 3cbd 5083 a7be 7494 2a3e 608b dcbc
00000110: 0d6e 893e 4dd9 a3be dbe9 233e f4f2 d63e
00000120: ffee 4fbe cf7c d63d c6f2 c7bd 0c82 10bf
00000130: 05ec 81be 81a5 463e 4d94 6a3e 3811 a23b
00000140: 725c e33e c050 583e a0f0 30bc 7d01 bebd
00000150: da33 72be 3bed 85be 39c3 1f3e 21c7 913e
00000160: e743 c83e 6a03 953e b3da 9cbd 88ea 29be
00000170: 9fcb 1fbe 8822 a3be 83c7 9a3e feaf e33e
00000180: 02c5 50be 469e 753d 5aa0 38be 3e09 c83e
-0.19729783 -0.26659414 -0.48414114 0.015739676 0.41044548 -0.02368083 -0.2881373 -0.28542632
-0.56392926 0.21532926 0.14936446 0.36555192 0.010224325 0.47833893 -0.0056374804 -0.073525
0.1115007 0.069203675 0.46711275 -0.17287996 0.27061686 -0.29893753 -0.1905877 -0.41963783
0.05793624 0.14899981 -0.027224995 -0.34504542 -0.23451598 -0.04943187 -0.29735062 -0.14960729
-0.43342173 -0.28644145 -0.0299262 0.49549398 -0.047087666 -0.33640003 -0.18279937 0.23040348
0.15005279 0.19946522 0.14782833 -0.27883187 0.36050954 -0.10608293 -0.3212275 -0.003835497
0.09864717 -0.15154773 -0.09263277 0.12483276 -0.10001646 -0.025894284 0.019732257 0.3033485
0.21190716 0.05816003 -0.16330558 0.17704639 0.08584971 -0.09719475 0.30375066 0.34330073
-0.046007555 -0.3271737 0.16658193 -0.026921928 0.26841775 -0.32001725 0.16007178 0.41982234
-0.20306014 0.10473024 -0.09763102 -0.56448436 -0.2537538 0.19399072 0.22908135 0.0049459003
0.44406468 0.21124554 -0.010799557 -0.092776276 -0.23652592 -0.26157555 0.15601815 0.28472236
0.39114305 0.29104167 -0.07658901 -0.16593373 -0.15605019 -0.31862283 0.3023034 0.4447021
-0.20387653 0.059965394 -0.1802992 0.3906955

parametrizer.linear2.bias f4 [10]
00000000: de88 f33c 98ec 92bd 2b26 9cbe f779 1d3e
00000010: c4ba 37bd 8f60 12be 53d4 213e 60b4 f5bd
00000020: 85a4 493e 5393 99be
0.02972835 -0.07174033 -0.3049787 0.15378557 -0.044855848 -0.14294647 0.15803652 -0.119972944
0.19691665 -0.29995212

parametrizer.linear3.weight f4 [5, 10]
00000000: 5ce5 afbe 5a69 d03e 0341 54be cc45 e3be
00000010: c25b d8bd e6a5 86be 20be a23e 30f1 453e
00000020: 8ed9 863e 2010 97be 217b 633e 57f9 abbe
00000030: aaf5 2f3d e8f6 b43e 1851 953e 9271 953e
00000040: 97cc dcbe 42d9 58be b3c5 53be 3c47 5a3e
00000050: ac6a b33e 03fe 78be b561 203e bc90 ad3e
00000060: 0ffe c63e 20bd 0f3e e881 aabe 7a5c 3d3e
00000070: 5cc2 e2be c636 873d 2d6f e73e 1fe6 71be
00000080: e091 bb3e 4143 bf3e a1c1 28be f3d8 5d3e
00000090: d7a6 54be c277 7abe a22e 6f3d dba2 b63e
000000a0: b043 813e 661a b43d 2a05 fcbd fb9d ddbe
000000b0: 7fac c23e 2673 383d 0f6e ed3d 36a9 da3e
000000c0: cb4a bcbe 3c74 713e
-0.34354675 0.40705377 -0.20727925 -0.44389188 -0.105643764 -0.26298445 0.3178568 0.19330287
0.26337856 -0.2950449 0.22214939 -0.3358867 0.042958893 0.35344625 0.29163432 0.2918821
-0.4312484 -0.21176627 -0.20680885 0.21316236 0.35042322 -0.24315648 0.15662272 0.33899486
0.38865706 0.14036989 -0.33302236 0.18492308 -0.4428891 0.06602244 0.45202008 -0.2362294
0.3663473 0.37355998 -0.16480114 0.21664791 -0.2076677 -0.24459746 0.058394082 0.35671124
0.25246954 0.087940976 -0.123056725 -0.43284592 0.3802223 0.04503169 0.11593258 0.42707223
-0.36775813 0.23579496

parametrizer.linear3.bias f4 [5]
00000000: 4b48 54be 6e12 a5be 165c 69be 925b b0bd
00000010: 5168 fe3d
-0.20730703 -0.32240623 -0.22789034 -0.08611216 0.124222405

parametrizer.linear4.weight f4 [12, 5]
00000000: 806c a5be aa9f 18be 01fa 01bf 7fa2 2c3f
00000010: 961b 72be 22cb abbe f194 4a3e e273 68be
00000020: 68ab 84bd 6707 9dbe a678 003e 9e16 023f
00000030: 53ed f33e 088a b3bd f1fa 7bbc e7ff fcbe
00000040: 43ca a9bd 18ef c1be 4583 9bbe d92f 65be
00000050: 3e40 b4be 5a2c e1bd f0de 863e 64ef 163f
00000060: 1e23 b0be 6a98 c13b ffd6 e63d 7df8 0a3e
00000070: 61d0 cb3d 34f7 dabe 6be7 0fbf 72e6 69be
00000080: eae5 a93e 2b88 043f 4587 d33e 38ab e13d
00000090: 801b af3d 5bdf 86be 5338 aabe d4c7 8c3e
000000a0: 712c 983e 019a d63e dd42 23be 8d55 8f3d
000000b0: c9df 1ebe de40 583e a41c b13e 1736 453e
000000c0: 1646 bd3d 829c d8be 32af babe 73f8 de3e
000000d0: a14e 67be 44bd c63e 49d1 b73e fd19 2fbf
000000e0: 418f 163f 819e 223f 3064 183f bd58 e93d
-0.3230934 -0.14904657 -0.507721 0.6743545 -0.23643336 -0.33553416 0.19783379 -0.22700456
-0.06478006 -0.3066971 0.12546024 0.5081576 0.47642002 -0.08766562 -0.015379653 -0.49413988
-0.082905315 -0.37877727 -0.30373588 -0.22381534 -0.35205263 -0.109947875 0.26341963 0.5895903
-0.34401792 0.0059080618 0.11271476 0.13571353 0.099518545 -0.42766726 -0.5621249 -0.22841814
0.33183223 0.51770276 0.4131414 0.110189855 0.08550167 -0.26342282 -0.33246097 0.27496207
0.29721406 0.4191437 -0.15943475 0.069987394 -0.15515055 0.21118495 0.34592164 0.19258915
0.092418835 -0.42306906 -0.36461788 0.43548927 -0.22588588 0.38816273 0.3590186 -0.6839903
0.5881234 0.6352311 0.59527874 0.113938786

parametrizer.linear4.bias f4 [12]
00000000: 0262 27be a3a9 703e 3036 273e 80be 0ebe
00000010: cb16 d83e 9243 cebd b9f4 3c3d 6842 d83d
00000020: f46d f5be cd25 b53e 2d59 a8bc 3224 29be
-0.16345981 0.23502211 0.16329265 -0.13939857 0.4220489 -0.10071482 0.046131823 0.10559541
-0.4793545 0.35380402 -0.020550335 -0.16517714

exp_avg f4 [10, 11]
00000000: a674 52bc b065 903a a30b 163b 345e 7f3b
00000010: 5552 33bc 316e 8337 af95 653b 0000 0000
00000020: a2ef b93a cca6 983a d914 c1bb 8660 67bc
00000030: 8fac c33a ba1d 643b 60bf 333b 5b9b 70bc
00000040: 4b62 dd37 5b58 6d3b 0000 0000 5a65 b13a
00000050: feca 8dba 505e ebbb 3fb6 acbc d598 bc3a
00000060: 116b 863b 353f a33b 53c1 b6bc 77a2 d437
00000070: 853a aa3b 0000 0000 fe09 b43a 28cb 0e3a
00000080: db8a 5abc d010 c6bc 0098 163b 9174 c43b
00000090: 07b4 473b 2c46 d7bc 1e4c 1138 1d6a b63b
000000a0: 0000 0000 8f79 a339 adff 103a a249 60bc
000000b0: 78fd 5e3c 5b8b 85ba 5f25 32bb 520e 35bb
000000c0: f4ef 403c 7812 59b7 5307 6bbb 0000 0000
000000d0: f5c4 92ba eb61 fbb9 b0ec d73b 035b e03c
000000e0: d7b2 aeba aae5 86bb ca35 a5bb d3ad f73c
000000f0: 4dc0 29b8 2bfe 93bb 0000 0000 7c5f 14bb
00000100: 8621 203b 011f 6f3c 7dd0 63bb 6221 b539
00000110: bd0a 7f39 be7e 353b 30c5 89bb fced db36
00000120: ce3e 093b 0000 0000 3611 393a 64fb 193a
00000130: c291 82ba 8e49 88bc 34b0 a03a 8271 483b
00000140: 89d1 293b 2d01 89bc 947d ca37 5819 733b
00000150: 0000 0000 1980 c63a 4974 873a 8346 18bc
00000160: 3a26 0bbd 4835 df3a 09dc c23b f9e0 ed3b
00000170: 85ba 04bd 6aa2 3138 a98c d43b 0000 0000
00000180: a9e8 2c3b 1614 0b3b abfb 8abc cac0 803c
00000190: 7c5e aeb9 1a50 f2ba cb4e 9bbb db69 8b3c
000001a0: 5571 c4b7 b4d3 6dbb 0000 0000 0500 9dba
000001b0: 5c8a 08ba c690 123c
-0.012845194 0.0011016633 0.002289512 0.0038966062 -0.010944922 1.5667729e-05 0.0035031845 0.0
0.0014185796 0.0011646389 -0.005892378 -0.014122134 0.0014928746 0.0034807757 0.00274273 -0.014685477
2.6391024e-05 0.0036215994 0.0 0.0013534233 -0.0010817943 -0.007182874 -0.021082995 0.0014388809
0.004102119 0.0049819 -0.022308981 2.5348023e-05 0.0051949644 0.0 0.0013735888 0.0005447143
-0.01333877 -0.024177939 0.0022978783 0.005995341 0.0030472295 -0.026278578 3.4641584e-05 0.005566849
0.0 0.0003118035 0.0005531263 -0.01368943 0.013610236 -0.0010188626 -0.002718292 -0.0027626944
0.011775959 -1.2938508e-05 -0.003586252 0.0 -0.0011197614 -0.00047947405 0.0065894946 0.027387148
-0.0013328445 -0.0041167336 -0.0050418125 0.030234253 -4.0471834e-05 -0.004516383 0.0 -0.002263992
0.0024434044 0.014594794 -0.003476172 0.00034547882 0.00024322695 0.0027693952 -0.004204415 6.5544136e-06
0.0020941976 0.0 0.00070597546 0.0005873947 -0.0009961652 -0.016636636 0.0012259544 0.0030585234
0.0025912246 -0.016724193 2.4138753e-05 0.0037093963 0.0 0.0015144377 0.0010334338 -0.009294155
-0.033972003 0.0017029429 0.0059466404 0.007259485 -0.03240444 4.235135e-05 0.0064864946 0.0
0.0026383793 0.002122169 -0.016965708 0.015716929 -0.00033258263 -0.0018487007 -0.0047396175 0.01701825
-2.3417795e-05 -0.0036289515 0.0 -0.0011978155 -0.00052086054 0.0089456495

exp_avg_sq f4 [10, 11]
00000000: 704f 8038 f68c 8f37 9b03 a837 f4cc 3438
00000010: deb1 f038 e7d4 2334 01c8 3037 0000 0000
00000020: d577 7436 a6f3 9137 832a 6438 bfbc 4d39
00000030: 9aa3 7638 cb9f 8a38 f523 b838 b527 a439
00000040: 01dc ba34 8048 d037 0000 0000 f52a b636
00000050: 3708 2738 95d5 db38 2af7 5239 9c69 2338
00000060: 6728 6c38 0ed7 b038 bf7b 9f39 f634 c334
00000070: ec55 9237 0000 0000 eb29 a536 eaa6 5f38
00000080: 750f f038 2f9f e239 111e e238 e6bf 0839
00000090: 4264 4339 4d13 253a 1b8b 3b35 b7a5 2438
000000a0: 0000 0000 e36d f336 a639 e838 2896 5b39
000000b0: dc6d 0039 8ff5 2a38 6e9d 4238 1d2e 8538
000000c0: b462 5039 e740 6334 a6b5 a037 0000 0000
000000d0: d706 8b36 3910 f237 6b16 c538 927d d039
000000e0: 3f66 ab38 7d93 d038 094e 4339 7171 253a
000000f0: 8dff 7135 ef5d ea37 0000 0000 04c2 4f37
00000100: 933d f938 0096 4e39 c3e6 3d37 7dbc c136
00000110: 0598 a136 e6c5 2237 adf4 da37 c45e d932
00000120: a22e c836 0000 0000 c0d5 8735 3af0 c036
00000130: fa07 3b37 e93f 8939 a718 9038 2c42 6638
00000140: 51b1 fd38 1b00 bc39 83c3 0d35 90a6 db37
00000150: 0000 0000 966c e836 dd7b 6638 77e0 0539
00000160: 1116 183a 4308 1139 1025 2f39 1220 8c39
00000170: 0241 613a 4f34 9f35 d4a9 8338 0000 0000
00000180: d44e a537 0839 1f39 0f70 c139 9f4e 2a39
00000190: 26af 1138 2640 1638 9fb9 8438 7071 5839
000001a0: 8ccf d834 d57b 9637 0000 0000 6f8d ee36
000001b0: 7d82 4338 89b7 bc38
6.118312e-05 1.7112568e-05 2.002884e-05 4.310622e-05 0.00011477222 1.5258011e-07 1.05369845e-05 0.0
3.6428585e-06 1.7398805e-05 5.4399028e-05 0.00019620637 5.8803336e-05 6.6101165e-05 8.780501e-05 0.00031310102
3.4805274e-07 2.4829293e-05 0.0 5.4290235e-06 3.9823553e-05 0.000104825165 0.00020119236 3.8960585e-05
5.6304412e-05 8.432391e-05 0.0003041904 3.6360115e-07 1.7444567e-05 0.0 4.922263e-06 5.3322794e-05
0.00011446971 0.0004322468 0.0001078212 0.00013041458 0.00018633998 0.00062971265 6.9865354e-07 3.925498e-05
0.0 7.254757e-06 0.0001107336 0.00020941405 0.00012247957 4.0759853e-05 4.6399822e-05 6.3505235e-05
0.00019873196 2.1164634e-07 1.9158073e-05 0.0 4.143319e-06 2.8856202e-05 9.397868e-05 0.0003976641
8.17296e-05 9.945685e-05 0.0001862572 0.00063111546 9.015137e-07 2.7938715e-05 0.0 1.2383334e-05
0.00011884714 0.0001970157 1.1319006e-05 5.773791e-06 4.8158713e-06 9.702029e-06 2.6101561e-05 2.530522e-08
5.9658933e-06 0.0 1.0120493e-06 5.750012e-06 1.1147926e-05 0.00026178293 6.871047e-05 5.48979e-05
0.00012097008 0.00035858233 5.28111e-07 2.6184396e-05 0.0 6.92678e-06 5.495163e-05 0.00012767488
0.0005801628 0.00013831355 0.00016703107 0.00026726775 0.0008592756 1.1861647e-06 6.2782e-05 0.0
1.970624e-05 0.00015184667 0.0003689532 0.00016241752 3.4733814e-05 3.582253e-05 6.328825e-05 0.00020641624
4.0384145e-07 1.7939057e-05 0.0 7.1094178e-06 4.661315e-05 8.998725e-05

exp_avg f4 [10]
00000000: c4f1 6cbc 6c43 9fbc 3cde ddbc e3b4 fcbc
00000010: 46f9 803c f295 163d ef29 b9bb bd88 a4bc
00000020: b102 21bd 85d2 a83c
-0.014461938 -0.019441329 -0.027083509 -0.030847972 0.015743863 0.036764093 -0.005650751 -0.020084733
-0.039309207 0.020608196

exp_avg_sq f4 [10]
00000000: 0559 2339 c356 da39 464a d439 56cb 5c3a
00000010: dcff 9a39 7793 5b3a 41a8 6838 74a6 f839
00000020: f0fe 953a 7f1a a039
0.00015578054 0.00041644843 0.0004049113 0.00084226334 0.000295638 0.0008376161 5.546981e-05 0.00047426263
0.0011443775 0.0003053732

exp_avg f4 [10, 10]
00000000: f94d 113c 5233 f2bb 40d2 cc3b df42 273b
00000010: 0800 1dba 694d 3dba d7ab 593c 8b19 5eba
00000020: 5d3f bd3a 5286 c33b ce6f 02bc 58b1 c23b
00000030: cd0e bcbb ac48 f2ba 1cb4 4b38 d087 aa3a
00000040: 5dc4 3abc 1716 6a3a e6ee 76ba d315 a7bb
00000050: fdbd b83b eb62 b8bb 4934 8b3b 342d 063b
00000060: bce0 11ba 4e73 d0b9 9b5a 1b3c 6073 54b9
00000070: da54 a73a e735 953b 7466 2a3c c2d4 00bc
00000080: 5aaa d63b c9c2 203b c6e6 a7b9 ccae f1ba
00000090: 7a68 783c 50f9 ca39 5f24 e03a 105c e63b
000000a0: 1137 913a 87ed 293a b32a a139 17f1 a339
000000b0: cf78 49b8 1e9c 32ba e793 f138 8ffd 8438
000000c0: 47f0 afb8 e277 25ba dfe6 c03b 4d26 91bb
000000d0: d626 893b 55ad 083b 800c 1fba 32c8 34ba
000000e0: 61f5 113c 5291 b3b9 2b81 983a 5754 713b
000000f0: 1f65 dabb 9840 913b a831 a5bb a934 0abb
00000100: bfc5 5139 7bed 063b d90f 14bc 544b 0b3a
00000110: 2bd7 caba 416f 64bb 3452 85bb ce34 453b
00000120: caa6 29bb 4fcd fcb9 1468 c7b8 b52f 9f3a
00000130: 13ed babb df6b 82b9 1cbb 58ba 16ff 32bb
00000140: 3aab 41bb 5dd9 803a 4bb6 f3ba 39f9 56ba
00000150: 8da9 6437 786b 4a3a f433 43bb db87 053a
00000160: dcb6 4db9 7036 48ba 0f6a cc3b d3e4 bebb
00000170: 5191 a83b da01 103b 8976 f4b9 210e 66b9
00000180: 8230 253c 1675 a9ba 86a1 883a 5a21 953b
0.008868688 -0.0073913718 0.0062506497 0.0025522036 -0.00059890794 -0.0007221313 0.013285599 -0.0008472434
0.0014438439 0.00596694 -0.007961227 0.005941551 -0.005739069 -0.0018484793 4.856671e-05 0.0013010446
-0.011399356 0.0008929683 -0.0009419754 -0.005099037 0.0056378827 -0.0056270263 0.0042481762 0.002047372
-0.0005564799 -0.0003975876 0.009482051 -0.00020260876 0.0012766377 0.004553545 0.010400403 -0.007863225
0.006551069 0.0024530164 -0.00032024662 -0.0018438934 0.015161628 0.00038714195 0.0017100683 0.0070300177
0.0011079033 0.0006482233 0.00030740126 0.0003126941 -4.8034646e-05 -0.00068134244 0.000115193245 6.3414795e-05
-8.3894054e-05 -0.00063121144 0.005886897 -0.0044296146 0.004185538 0.0020855267 -0.00060672313 -0.00068962865
0.008908601 -0.00034249813 0.0011635175 0.0036823952 -0.0066648866 0.004432749 -0.00504132 -0.0021088517
0.0002000546 0.0020588327 -0.0090369815 0.0005313654 -0.0015475502 -0.0034856352 -0.0040686373 0.0030091288
-0.0025886768 -0.00048218152 -9.5084455e-05 0.0012144955 -0.005704531 -0.00024875902 -0.00082676276 -0.0027312688
-0.0029551522 0.0009830404 -0.0018593756 -0.0008200589 1.3629336e-05 0.00077217026 -0.0029785605 0.00050937914
-0.00019618444 -0.00076375064 0.006238229 -0.005825618 0.005144276 0.002197376 -0.00046627622 -0.00021939773
0.010082366 -0.0012928571 0.0010424114 0.004551095

exp_avg_sq f4 [10, 10]
00000000: 71da 5638 f827 5c38 8a20 de37 b587 2138
00000010: 2285 ab37 e724 0838 a620 2b39 987c de37
00000020: 509d af37 ef12 9238 0b2b 5238 a758 5538
00000030: 4353 cb37 e943 1038 18d2 9f37 127e 0438
00000040: a829 1e39 293f dc37 3aec c037 cef4 8c38
00000050: bcd5 1838 0b12 1538 e852 8837 f781 7637
00000060: 4124 0e37 7f7d 9437 6eef c938 e507 4137
00000070: 4eb1 6d37 471c 3c38 5304 b938 7480 ab38
00000080: 09cd 1d38 7f10 4138 40d7 ce37 9d97 2c38
00000090: 50b2 7539 266f 2638 454f 1b38 25c5 e238
000000a0: e7d3 4837 7d58 3b36 0781 2d36 cfcd a737
000000b0: bab5 0937 9566 a036 8bf4 1538 2078 8e37
000000c0: 1a0e 8f36 1caa 8c36 70c5 cd37 82b7 c837
000000d0: 4408 3b37 e487 fc37 9248 7837 c0d0 8737
000000e0: df33 aa38 dbb8 b237 dacf 6c37 bc45 0138
000000f0: 2f33 2a38 e587 2638 154e 8c37 338a f137
00000100: d014 7037 f4b6 c837 9485 f438 187e df37
00000110: 10bb b537 626c 6638 0017 cd37 3152 a937
00000120: 74f3 2c37 fe93 1237 62b5 aa36 c3bf 2737
00000130: 1de7 6f38 6f8d 0137 e96e 2c37 ecb3 dd37
00000140: 73aa 1837 8057 8d36 51f2 8136 74ca 6c37
00000150: 68a7 d636 ea8a a936 e762 0038 72b0 2337
00000160: 8822 4236 da47 d636 873f df37 c08f 0338
00000170: a71f 7a37 8632 8037 4aa7 1c37 bc80 9f37
00000180: 5b35 bb38 a6fa 3d37 f938 3337 ef61 2738
5.1225015e-05 5.248931e-05 2.6479614e-05 3.851178e-05 2.0446783e-05 3.2459295e-05 0.00016319993 2.652248e-05
2.093488e-05 6.965349e-05 5.010799e-05 5.086572e-05 2.4238258e-05 3.439552e-05 1.905211e-05 3.1588665e-05
0.00015083572 2.6255455e-05 2.2998185e-05 6.721319e-05 3.643868e-05 3.5541172e-05 1.625107e-05 1.4693002e-05
8.472301e-06 1.7701414e-05 9.629024e-05 1.15055345e-05 1.4167583e-05 4.484903e-05 8.822293e-05 8.177842e-05
3.762267e-05 4.603015e-05 2.4657347e-05 4.1149196e-05 0.00023431447 3.9681e-05 3.7028705e-05 0.00010813241
1.1970266e-05 2.7916678e-06 2.5854113e-06 2.0003788e-05 8.208148e-06 4.7803137e-06 3.5752117e-05 1.6983657e-05
4.2633737e-06 4.1921285e-06 2.4529843e-05 2.392731e-05 1.1147993e-05 3.010402e-05 1.47988485e-05 1.619046e-05
8.1158934e-05 2.1305334e-05 1.411509e-05 3.0820942e-05 4.0578827e-05 3.9704046e-05 1.672566e-05 2.8793793e-05
1.43099605e-05 2.3927052e-05 0.000116597075 2.6642389e-05 2.166399e-05 5.4937213e-05 2.4448615e-05 2.0184643e-05
1.0308682e-05 8.736735e-06 5.0875105e-06 9.998624e-06 5.719728e-05 7.721929e-06 1.0277822e-05 2.6429036e-05
9.099592e-06 4.212314e-06 3.872709e-06 1.41138335e-05 6.3971856e-06 5.052764e-06 3.0609688e-05 9.756639e-06
2.8928353e-06 6.3860616e-06 2.6613254e-05 3.136671e-05 1.4908531e-05 1.5282316e-05 9.337275e-06 1.9014224e-05
8.926793e-05 1.13236365e-05 1.0682496e-05 3.990711e-05

exp_avg f4 [10]
00000000: 1a86 a43c e315 8ebc f453 693c 7698 c13c
00000010: 1266 8b3a f027 5b3c 3e5d 65bc 9ae1 10bc
00000020: a28d 9ebb 9d66 703c
0.020083476 -0.01734442 0.014241207 0.02363227 0.0010635278 0.013376221 -0.013999281 -0.00884285
-0.0048386613 0.014672902

exp_avg_sq f4 [10]
00000000: 4c93 d939 7ba1 c539 a344 7039 b785 1d3a
00000010: 2e3e 1a39 ff35 7539 9651 a539 7e9c 0f39
00000020: 0f4a f538 5c82 5639
0.0004149921 0.0003769508 0.00022913753 0.0006009 0.00014709748 0.00023385136 0.0003153204 0.0001369584
0.00011696305 0.00020457193

exp_avg f4 [5, 10]
00000000: a523 993b 096d 9a3a 523a 8b3b 8e33 983a
00000010: f41d c03b c97f cc3a c3df 09bc d7a0 f53b
00000020: 2bf9 1dbc 7ba0 023c 5f49 32bb 45dc 8e3a
00000030: 1579 f4ba 70d8 11bb 4fd8 5aba 7369 98ba
00000040: f2cc 673b d60e d1b9 9a25 433b 5d08 7abb
00000050: 9a7d fdba 04f1 9c3a fe9d d4ba 04a5 22bb
00000060: 39f3 9939 fd86 c9ba 692e 133b 75c6 bc3a
00000070: 7820 403b c3cb 3bbb 41ee e8bb c390 6aba
00000080: 410c d6bb 6a04 73b9 d77d 12bc a48e dcba
00000090: daaf 263c 60e2 1dbc b9d6 453c d99f 22bc
000000a0: 362a bb39 d0be 5138 72d0 083a b309 a83a
000000b0: 8a81 38ba 2bfd 343a 04de 35ba d436 7dba
000000c0: be1d 7aba 255d 1a3a
0.0046734386 0.0011781763 0.0042488957 0.0011612044 0.0058629457 0.0015602048 -0.008415165 0.0074959802
-0.009641926 0.007972832 -0.0027204377 0.0010899386 -0.0018651808 -0.002225425 -0.00083482725 -0.0011628106
0.003536996 -0.0003987464 0.002977705 -0.0038151958 -0.00193398 0.0011973684 -0.0016221402 -0.0024817595
0.0002936365 -0.0015375313 0.0022458083 0.0014402407 0.0029316228 -0.0028655387 -0.00710848 -0.0008947963
-0.0065322225 -0.0002317593 -0.008941135 -0.0016827178 0.010173762 -0.009636492 0.01207512 -0.009925806
0.0003569887 5.000719e-05 0.0005219049 0.0012820273 -0.0007038346 0.000690418 -0.0006937685 -0.0009659354
-0.0009541175 0.00058885134

exp_avg_sq f4 [5, 10]
00000000: 2155 3038 44ce 9738 275a 5538 123b 7d38
00000010: 1c90 e938 3c7c 1937 d907 4d38 5d2b 4039
00000020: 7b29 e538 cdb4 5338 f628 f837 f0ff ab37
00000030: 9b30 9338 07ec 9f37 5a37 0138 42c4 b937
00000040: d048 c737 5eb4 0b38 d4b8 8538 130b 3f38
00000050: 65b1 5537 11f3 be36 daf6 3538 e364 aa36
00000060: feff 4d37 fbf3 3737 07c1 9a37 de93 4e37
00000070: f755 7238 ff65 0d38 b52b 6b38 58ad 9138
00000080: 68c2 4c38 2a5b 7938 d79e df38 738a 0737
00000090: e131 8038 efb1 3539 874f 2739 0235 8238
000000a0: e5ab 9836 cf5e 4c37 cb92 4137 1e4a e736
000000b0: 5992 4537 0939 8336 5241 2537 ff1d 0238
000000c0: 6fae b037 8dcd 3237
4.2040952e-05 7.238661e-05 5.086712e-05 6.0374914e-05 0.00011137148 9.148436e-06 4.8883117e-05 0.00018326701
0.00010927297 5.0474704e-05 2.9582978e-05 2.0503969e-05 7.01856e-05 1.9064186e-05 3.0807547e-05 2.2145108e-05
2.3756555e-05 3.3308163e-05 6.376361e-05 4.5548262e-05 1.2737092e-05 5.690738e-06 4.338366e-05 5.0781396e-06
1.2278555e-05 1.0964456e-05 1.8448116e-05 1.2312985e-05 5.7777357e-05 3.371201e-05 5.606907e-05 6.9464266e-05
4.8818445e-05 5.945113e-05 0.00010663055 8.078862e-06 6.112806e-05 0.0001732779 0.00015955987 6.2087565e-05
4.549964e-06 1.2181422e-05 1.1537874e-05 6.892965e-06 1.1776189e-05 3.910744e-06 9.849975e-06 3.102235e-05
2.1062062e-05 1.0657485e-05

exp_avg f4 [5]
00000000: cf01 abbc f83c aa3b de9c 6d3b 41ed d53c
00000010: 8b26 3cb9
-0.020874886 0.0051952563 0.003625683 0.026114108 -0.00017943436

exp_avg_sq f4 [5]
00000000: 0129 4b3a 36db fd39 82d4 d039 1e46 563a
00000010: ce4f 5039
0.00077499455 0.00048419245 0.00039831182 0.00081739004 0.00019866155

exp_avg f4 [12, 5]
00000000: fc4c c83a 47f6 dabb 2c3f 00bc a4cc 2abb
00000010: f344 8abb 3c26 5b3b 31a2 18bb 4853 a3ba
00000020: 6a8b 54bb 6f5f 8e3a 3da7 633b e351 2fbb
00000030: 456f faba e3fe 60bb 70dd f239 698b 31ba
00000040: 1057 013b fc1d 2a3b 8f10 883a f35e 203b
00000050: 6446 943b 8da5 1ebc 70bb 26bc 69b9 babb
00000060: afb1 5bbb f17e 3fb8 b71a 7038 b1e7 6938
00000070: dfb6 4c38 a618 d035 29e5 d23a bd47 2339
00000080: b45f 683a c503 72ba 895c 933a 0000 0000
00000090: 0000 0000 0000 0000 0000 0000 0000 0000
000000a0: 1b4a 0fba ac98 913a 620d 843a 2842 6d3a
000000b0: db69 8d39 5af2 143b 725c 16ba 6f13 be39
000000c0: 0fb1 fdba 8b2c d23a 5fd9 e23a 3216 9dbb
000000d0: 67dd c5bb 691d 09bb 5de6 8abb 0510 213c
000000e0: fec0 8abc 87f1 8bbc 7dae 3ebc cfb4 a6bb
0.0015281732 -0.0066821906 -0.007827561 -0.0026061917 -0.004219645 0.0033439538 -0.0023290033 -0.0012460733
-0.003243173 0.0010862182 0.0034737133 -0.002675169 -0.0019106647 -0.0034331612 0.0004632282 -0.0006772788
0.0019735731 0.0025957813 0.0010380911 0.0024470657 0.004524993 -0.009683025 -0.0101765245 -0.005698372
-0.0033522656 -4.5656172e-05 5.724534e-05 5.576731e-05 4.8807702e-05 1.5504381e-06 0.0016090024 0.00015571616
0.00088643585 -0.0009232129 0.0011242788 0.0 0.0 0.0 0.0 0.0
-0.00054660597 0.0011108122 0.0010074789 0.00090506906 0.00026972484 0.002272746 -0.00057358213 0.00036254103
-0.0019355136 0.0016035003 0.0017307213 -0.0047939057 -0.006038356 -0.002092207 -0.004238887 0.0098304795
-0.016937729 -0.017082943 -0.011638281 -0.005087472

exp_avg_sq f4 [12, 5]
00000000: 1458 9a38 a911 ae38 ef82 d838 5818 3738
00000010: 3c36 8938 6e98 9b37 556f b337 5c97 ea37
00000020: 04d6 4737 219a 8e37 7368 a637 b3bc bd38
00000030: 45e0 b238 e49f 4f37 6a73 d237 795a 0438
00000040: be32 5538 0853 7438 eee9 9e37 4fd9 f237
00000050: a480 7538 e0cb de38 23e1 0839 2a7d 2338
00000060: d21f 6e38 290d 6e34 1ce1 3a35 4260 3635
00000070: 3c7f 7e34 fa01 c633 d812 7e36 ba03 8237
00000080: 9d23 8637 31e3 5936 12ef b036 0000 0000
00000090: 0000 0000 0000 0000 0000 0000 0000 0000
000000a0: ab9f 3236 ec83 2c37 7e36 1837 63e0 3436
000000b0: d4f7 2b36 55ea 6b37 0871 2e38 d4a1 3338
000000c0: 13aa 2537 d145 9237 0c2b cd37 5d28 ea38
000000d0: 3b65 df38 1afc 7b37 3e12 2938 815a 1c39
000000e0: b4ed b039 a646 a539 e1d4 ea38 b49c cb38
7.359698e-05 8.300256e-05 0.00010324071 4.3653272e-05 6.542771e-05 1.854842e-05 2.1390306e-05 2.7965456e-05
1.1911154e-05 1.6999491e-05 1.983738e-05 9.04737e-05 8.529475e-05 1.2375389e-05 2.5087695e-05 3.155551e-05
5.0830415e-05 5.8251462e-05 1.8944e-05 2.894984e-05 5.8532358e-05 0.000106237596 0.0001305384 3.8978797e-05
5.6773257e-05 2.2170265e-07 6.9617977e-07 6.7940357e-07 2.3701881e-07 9.220453e-08 3.7859918e-06 1.5498943e-05
1.5990629e-05 3.2467763e-06 5.27304e-06 0.0 0.0 0.0 0.0 0.0
2.6617006e-06 1.0282714e-05 9.0725935e-06 2.69527e-06 2.562524e-06 1.4061651e-05 4.15901e-05 4.282764e-05
9.874365e-06 1.7437067e-05 2.445795e-05 0.00011165508 0.00010652324 1.5019463e-05 4.030973e-05 0.00014911035
0.0003374644 0.0003152389 0.00011197641 9.7089825e-05

exp_avg f4 [12]
00000000: 2a1e 013c bd34 ceba 8db7 953a 55ed 96bb
00000010: dcdb 333c ee01 90b8 9ab4 30bb 0000 0000
00000020: 84be 8fba 8859 b7ba 59cb 033c 453b a03c
0.007880727 -0.001573227 0.00114225 -0.004605929 0.0109777115 -6.8668145e-05 -0.0026963116 0.0
-0.0010966812 -0.0013988474 0.008044087 0.019559512

exp_avg_sq f4 [12]
00000000: 2926 243a 78ab 2c39 ccde e839 4f21 af39
00000010: 7f76 0f3a a483 ed35 0e0a 8e38 0000 0000
00000020: a8ca 0b38 6365 2a39 f9d0 063a b793 b23a
0.000626179 0.00016467075 0.00044416485 0.00033403418 0.00054726744 1.7696188e-06 6.7729605e-05 0.0
3.332892e-05 0.00016250233 0.00051428337 0.0013624345

weight f4 [10, 11]
00000000: d4d6 4b3e 6f2e aebe dfe3 d63d 85ef 1bbe
00000010: 2ad3 f4bc ad41 f3bd c321 27be 5290 72be
00000020: a30c 9cbe fd5d 3e3e a7b7 8bbe c483 99be
00000030: b46d 6dbe b81e 3d3e 3d39 3ebe 7196 8dbd
00000040: f4be 8abe cd62 193e 5e7c 8d3e 89bc c7bd
00000050: 730c 78be 3013 10be ac25 7a3e 9461 15bf
00000060: c2ef 50be a678 733d 5844 4fbd aefa adbd
00000070: b69b 3e3d 2c59 8c3e 8373 253e 0dbd 89be
00000080: bdf3 59be 44f8 69be 6f4b 19bf e937 463e
00000090: 46d2 213d e91c 48be 28e2 923e 8d96 d2bc
000000a0: 6eac 6abe e6dd 953e 6c7e 7ebe 325c aa3e
000000b0: 2dee d03c 26e0 9d3e 0ed7 12be 1249 293e
000000c0: 06a7 693e ca22 373e d2c4 89be 9489 4b3e
000000d0: 8e14 3abc 8624 20be 6d95 95be 3970 453e
000000e0: 1e85 1a3f 4a9a 403e 9bba 5e3e 752e 3abe
000000f0: e5a2 a1bd 96b1 fb3d d7a2 03be ac95 37bd
00000100: d63f 743d e0eb 923e 397e 823e 7c88 a7be
00000110: 24b2 be3e b281 333d f33c 553e 681b 203e
00000120: d4f5 293d e32e 61be f982 50be 328b 11be
00000130: 0a26 933e 9f7d 95be 3d9b 62be bb46 a73e
00000140: f9ab 1cbe 38a1 de3d d0a5 913e 3bff 673e
00000150: da28 84bd 351d 56be fbcf 813e 7960 ed3d
00000160: 17b7 073c e183 3ebf dd94 b03e b6bd 96be
00000170: b614 b03d 543f 7c3e cb37 693d b243 043e
00000180: 374c 853e b548 733e 0f5f 543e d21b 263e
00000190: f993 d93e 4a38 b33d a0b0 963e 5923 973e
000001a0: 0792 7a3d da39 debd fc80 973e f12d 78be
000001b0: 1760 29bd ebb3 493d
0.19906169 -0.340198 0.10492682 -0.15228088 -0.029885847 -0.11877761 -0.16321473 -0.23687866
-0.3047839 0.18590541 -0.27288553 -0.29983342 -0.2318638 0.1846875 -0.18576522 -0.0691346
-0.2709881 0.14979096 0.27633947 -0.09752757 -0.24223499 -0.1406982 0.24428433 -0.5835202
-0.2040396 0.05944123 -0.050602287 -0.08495079 0.046535216 0.27411783 0.16157345 -0.26902047
-0.21284385 -0.22848612 -0.5988073 0.19357266 0.039507173 -0.19542278 0.2868817 -0.025706554
-0.22917339 0.29270858 -0.24852914 0.33273464 0.025504196 0.30835074 -0.1433985 0.1653178
0.2281762 0.17884365 -0.26907974 0.198767 -0.01135744 -0.15638933 -0.29215565 0.19281091
0.6035937 0.18808857 0.21750872 -0.18181784 -0.07892398 0.12289731 -0.12855087 -0.044820473
0.05963119 0.28695583 0.25486925 -0.32721317 0.37245286 0.04382486 0.20824032 0.15635455
0.041494206 -0.21990542 -0.20362462 -0.14213255 0.2873996 -0.29197404 -0.22129531 0.3267115
-0.15299977 0.10870594 0.28446817 0.22655956 -0.06453104 -0.20909579 0.2535399 0.11590666
0.008283398 -0.7441998 0.34488574 -0.29441613 0.085977 0.24633533 0.056937974 0.12916449
0.2603471 0.23758204 0.20739387 0.1622155 0.42495707 0.08750971 0.2943163 0.29519156
0.06117442 -0.10850878 0.29590595 -0.24236275 -0.041351404 0.04924385

bias f4 [10]
00000000: 2958 c23e 8d05 46bc ace6 6a3e 0c9f ab3e
00000010: 8ba0 11be 2493 c2bd cead bb3e eeab 093e
00000020: 3f7c b0bd a178 2fbd
0.37957886 -0.012086284 0.22939557 0.3351978 -0.14221399 -0.09500721 0.3665604 0.13444492
-0.08617448 -0.04283965

weight f4 [10, 10]
00000000: 7108 4abe 077f 88be 59e1 f7be 7ef0 803c
00000010: e925 d23e 4dfe c1bc bb86 93be 6623 92be
00000020: ab5d 10bf 467f 5c3e fff2 183e 9f29 bb3e
00000030: ed83 273c d7e8 f43e 9dba b8bb 4694 96bd
00000040: 7b5a e43d a8ba 8d3d 6729 ef3e 7207 31be
00000050: 4b8e 8a3e 570e 99be 6c29 43be c5da d6be
00000060: 8d4e 6d3d 6893 183e f406 dfbc cba9 b0be
00000070: f524 70be 1379 4abd 573e 98be a732 19be
00000080: 74e9 ddbe 74a8 92be ca27 f5bc 63b1 fd3e
00000090: ffde 40bd a03c acbe c22f 3bbe e4ee 6b3e
000000a0: 70a7 193e 9c40 4c3e 4f60 173e 0dc3 8ebe
000000b0: b594 b83e 0242 d9bd ee77 a4be f65c 7bbb
000000c0: 8707 ca3d 542f 1bbe 40b6 bdbd 51a8 ff3d
000000d0: 6ed5 ccbd 4020 d4bc 8ba5 a13c 7f50 9b3e
000000e0: 31fe 583e 3639 6e3d 9439 27be a64b 353e
000000f0: f9d1 af3d 0b0e c7bd 3585 9b3e 1dc5 af3e
00000100: 6b72 3cbd 5083 a7be 7494 2a3e 608b dcbc
00000110: 0d6e 893e 4dd9 a3be dbe9 233e f4f2 d63e
00000120: ffee 4fbe cf7c d63d c6f2 c7bd 0c82 10bf
00000130: 05ec 81be 81a5 463e 4d94 6a3e 3811 a23b
00000140: 725c e33e c050 583e a0f0 30bc 7d01 bebd
00000150: da33 72be 3bed 85be 39c3 1f3e 21c7 913e
00000160: e743 c83e 6a03 953e b3da 9cbd 88ea 29be
00000170: 9fcb 1fbe 8822 a3be 83c7 9a3e feaf e33e
00000180: 02c5 50be 469e 753d 5aa0 38be 3e09 c83e
-0.19729783 -0.26659414 -0.48414114 0.015739676 0.41044548 -0.02368083 -0.2881373 -0.28542632
-0.56392926 0.21532926 0.14936446 0.36555192 0.010224325 0.47833893 -0.0056374804 -0.073525
0.1115007 0.069203675 0.46711275 -0.17287996 0.27061686 -0.29893753 -0.1905877 -0.41963783
0.05793624 0.14899981 -0.027224995 -0.34504542 -0.23451598 -0.04943187 -0.29735062 -0.14960729
-0.43342173 -0.28644145 -0.0299262 0.49549398 -0.047087666 -0.33640003 -0.18279937 0.23040348
0.15005279 0.19946522 0.14782833 -0.27883187 0.36050954 -0.10608293 -0.3212275 -0.003835497
0.09864717 -0.15154773 -0.09263277 0.12483276 -0.10001646 -0.025894284 0.019732257 0.3033485
0.21190716 0.05816003 -0.16330558 0.17704639 0.08584971 -0.09719475 0.30375066 0.34330073
-0.046007555 -0.3271737 0.16658193 -0.026921928 0.26841775 -0.32001725 0.16007178 0.41982234
-0.20306014 0.10473024 -0.09763102 -0.56448436 -0.2537538 0.19399072 0.22908135 0.0049459003
0.44406468 0.21124554 -0.010799557 -0.092776276 -0.23652592 -0.26157555 0.15601815 0.28472236
0.39114305 0.29104167 -0.07658901 -0.16593373 -0.15605019 -0.31862283 0.3023034 0.4447021
-0.20387653 0.059965394 -0.1802992 0.3906955

bias f4 [10]
00000000: de88 f33c 98ec 92bd 2b26 9cbe f779 1d3e
00000010: c4ba 37bd 8f60 12be 53d4 213e 60b4 f5bd
00000020: 85a4 493e 5393 99be
0.02972835 -0.07174033 -0.3049787 0.15378557 -0.044855848 -0.14294647 0.15803652 -0.119972944
0.19691665 -0.29995212

weight f4 [5, 10]
00000000: 5ce5 afbe 5a69 d03e 0341 54be cc45 e3be
00000010: c25b d8bd e6a5 86be 20be a23e 30f1 453e
00000020: 8ed9 863e 2010 97be 217b 633e 57f9 abbe
00000030: aaf5 2f3d e8f6 b43e 1851 953e 9271 953e
00000040: 97cc dcbe 42d9 58be b3c5 53be 3c47 5a3e
00000050: ac6a b33e 03fe 78be b561 203e bc90 ad3e
00000060: 0ffe c63e 20bd 0f3e e881 aabe 7a5c 3d3e
00000070: 5cc2 e2be c636 873d 2d6f e73e 1fe6 71be
00000080: e091 bb3e 4143 bf3e a1c1 28be f3d8 5d3e
00000090: d7a6 54be c277 7abe a22e 6f3d dba2 b63e
000000a0: b043 813e 661a b43d 2a05 fcbd fb9d ddbe
000000b0: 7fac c23e 2673 383d 0f6e ed3d 36a9 da3e
000000c0: cb4a bcbe 3c74 713e
-0.34354675 0.40705377 -0.20727925 -0.44389188 -0.105643764 -0.26298445 0.3178568 0.19330287
0.26337856 -0.2950449 0.22214939 -0.3358867 0.042958893 0.35344625 0.29163432 0.2918821
-0.4312484 -0.21176627 -0.20680885 0.21316236 0.35042322 -0.24315648 0.15662272 0.33899486
0.38865706 0.14036989 -0.33302236 0.18492308 -0.4428891 0.06602244 0.45202008 -0.2362294
0.3663473 0.37355998 -0.16480114 0.21664791 -0.2076677 -0.24459746 0.058394082 0.35671124
0.25246954 0.087940976 -0.123056725 -0.43284592 0.3802223 0.04503169 0.11593258 0.42707223
-0.36775813 0.23579496

bias f4 [5]
00000000: 4b48 54be 6e12 a5be 165c 69be 925b b0bd
00000010: 5168 fe3d
-0.20730703 -0.32240623 -0.22789034 -0.08611216 0.124222405

weight f4 [12, 5]
00000000: 806c a5be aa9f 18be 01fa 01bf 7fa2 2c3f
00000010: 961b 72be 22cb abbe f194 4a3e e273 68be
00000020: 68ab 84bd 6707 9dbe a678 003e 9e16 023f
00000030: 53ed f33e 088a b3bd f1fa 7bbc e7ff fcbe
00000040: 43ca a9bd 18ef c1be 4583 9bbe d92f 65be
00000050: 3e40 b4be 5a2c e1bd f0de 863e 64ef 163f
00000060: 1e23 b0be 6a98 c13b ffd6 e63d 7df8 0a3e
00000070: 61d0 cb3d 34f7 dabe 6be7 0fbf 72e6 69be
00000080: eae5 a93e 2b88 043f 4587 d33e 38ab e13d
00000090: 801b af3d 5bdf 86be 5338 aabe d4c7 8c3e
000000a0: 712c 983e 019a d63e dd42 23be 8d55 8f3d
000000b0: c9df 1ebe de40 583e a41c b13e 1736 453e
000000c0: 1646 bd3d 829c d8be 32af babe 73f8 de3e
000000d0: a14e 67be 44bd c63e 49d1 b73e fd19 2fbf
000000e0: 418f 163f 819e 223f 3064 183f bd58 e93d
-0.3230934 -0.14904657 -0.507721 0.6743545 -0.23643336 -0.33553416 0.19783379 -0.22700456
-0.06478006 -0.3066971 0.12546024 0.5081576 0.47642002 -0.08766562 -0.015379653 -0.49413988
-0.082905315 -0.37877727 -0.30373588 -0.22381534 -0.35205263 -0.109947875 0.26341963 0.5895903
-0.34401792 0.0059080618 0.11271476 0.13571353 0.099518545 -0.42766726 -0.5621249 -0.22841814
0.33183223 0.51770276 0.4131414 0.110189855 0.08550167 -0.26342282 -0.33246097 0.27496207
0.29721406 0.4191437 -0.15943475 0.069987394 -0.15515055 0.21118495 0.34592164 0.19258915
0.092418835 -0.42306906 -0.36461788 0.43548927 -0.22588588 0.38816273 0.3590186 -0.6839903
0.5881234 0.6352311 0.59527874 0.113938786

bias f4 [12]
00000000: 0262 27be a3a9 703e 3036 273e 80be 0ebe
00000010: cb16 d83e 9243 cebd b9f4 3c3d 6842 d83d
00000020: f46d f5be cd25 b53e 2d59 a8bc 3224 29be
-0.16345981 0.23502211 0.16329265 -0.13939857 0.4220489 -0.10071482 0.046131823 0.10559541
-0.4793545 0.35380402 -0.020550335 -0.16517714

concepts f4 [35, 12, 1]
00000000: 0000 0000 0000 0000 0000 0000 0000 0000
00000010: 0000 0000 0000 0000 0000 0000 0000 0000
00000020: 0000 0000 0000 803f 0000 803f 0000 803f
00000030: 0000 0000 0000 0000 0000 0000 0000 0000
00000040: 0000 0000 0000 0000 0000 803f 0000 0000
00000050: 0000 0000 0000 0000 0000 803f 0000 803f
00000060: 0000 803f 5f1d 263e 0000 0000 0000 803f
00000070: 0000 0000 0000 0000 0000 0000 0000 0000
00000080: 0000 0000 0000 0000 0000 0000 0000 803f
00000090: 0000 803f f5eb 6a3e 0000 803f 0000 0000
000000a0: 0000 0000 0000 0000 0000 0000 0000 0000
000000b0: 0000 0000 0000 0000 0000 0000 0000 803f
000000c0: 0000 0000 f5eb 6a3e 0000 0000 0000 0000
000000d0: 0000 0000 0000 0000 0000 0000 0000 0000
000000e0: 0000 0000 0000 0000 0000 803f 0000 803f
000000f0: 0000 803f 0000 0000 0000 0000 0000 803f
00000100: 0000 0000 0000 0000 0000 803f 0000 0000
00000110: 0000 0000 0000 0000 0000 0000 0000 803f
00000120: 0000 803f 5f1d 263f 0000 0000 0000 0000
00000130: 0000 803f 0000 0000 0000 0000 0000 0000
00000140: 0000 0000 0000 0000 0000 0000 0000 803f
00000150: 0000 803f 5f1d a63e 0000 0000 0000 0000
00000160: 0000 0000 0000 0000 0000 0000 0000 0000
00000170: 0000 0000 0000 0000 0000 0000 0000 803f
00000180: 0000 803f 0000 0000 0000 0000 0000 803f
00000190: 0000 0000 0000 0000 0000 0000 0000 0000
000001a0: 0000 0000 0000 803f 0000 803f 0000 803f
000001b0: 0000 0000 0000 0000 0000 0000 0000 803f
000001c0: 0000 803f 0000 0000 0000 0000 0000 0000
000001d0: 0000 0000 0000 0000 0000 0000 0000 803f
000001e0: 0000 0000 5f1d 263e 0000 0000 0000 0000
000001f0: 0000 0000 0000 0000 0000 803f 0000 0000
00000200: 0000 0000 0000 0000 0000 803f 0000 803f
00000210: 0000 803f 0ddc 8f3e 0000 0000 0000 803f
00000220: 0000 803f 0000 0000 0000 0000 0000 0000
00000230: 0000 0000 0000 0000 0000 0000 0000 803f
00000240: 0000 803f 5f1d 263e 0000 0000 0000 803f
00000250: 0000 803f 0000 0000 0000 0000 0000 0000
00000260: 0000 0000 0000 0000 0000 0000 0000 803f
00000270: 0000 803f 0ddc 8f3e 0000 0000 0000 803f
00000280: 0000 0000 0000 0000 0000 0000 0000 0000
00000290: 0000 0000 0000 0000 0000 0000 0000 803f
000002a0: 0000 0000 5f1d 263e 0000 0000 0000 0000
000002b0: 0000 0000 0000 0000 0000 803f 0000 0000
000002c0: 0000 0000 0000 0000 0000 803f 0000 803f
000002d0: 0000 803f c8bf db3e 0000 0000 0000 0000
000002e0: 0000 803f 0000 0000 0000 0000 0000 0000
000002f0: 0000 0000 0000 0000 0000 0000 0000 803f
00000300: 0000 0000 0000 0000 0000 0000 0000 803f
00000310: 0000 0000 0000 0000 0000 0000 0000 0000
00000320: 0000 0000 0000 0000 0000 0000 0000 803f
00000330: 0000 0000 0000 0000 0000 0000 0000 803f
00000340: 0000 803f 0000 0000 0000 0000 0000 0000
00000350: 0000 0000 0000 0000 0000 0000 0000 803f
00000360: 0000 0000 0000 0000 0000 0000 0000 803f
00000370: 0000 0000 0000 0000 0000 0000 0000 0000
00000380: 0000 803f 0000 803f 0000 0000 0000 803f
00000390: 0000 803f 5f1d 263e 0000 0000 0000 0000
000003a0: 0000 0000 0000 0000 0000 803f 0000 0000
000003b0: 0000 0000 0000 0000 0000 0000 0000 803f
000003c0: 0000 803f 5f1d 263e 0000 0000 0000 0000
000003d0: 0000 803f 0000 0000 0000 0000 0000 0000
000003e0: 0000 0000 0000 0000 0000 803f 0000 803f
000003f0: 0000 803f 0000 0000 0000 0000 0000 803f
0.0 0.0 0.0 0.0 0.0 0.0 0.0 0.0
0.0 1.0 1.0 1.0 0.0 0.0 0.0 0.0
0.0 0.0 1.0 0.0 0.0 0.0 1.0 1.0
1.0 0.16222142 0.0 1.0 0.0 0.0 0.0 0.0
0.0 0.0 0.0 1.0 1.0 0.22941573 1.0 0.0
0.0 0.0 0.0 0.0 0.0 0.0 0.0 1.0
0.0 0.22941573 0.0 0.0 0.0 0.0 0.0 0.0
0.0 0.0 1.0 1.0 1.0 0.0 0.0 1.0
0.0 0.0 1.0 0.0 0.0 0.0 0.0 1.0
1.0 0.64888567 0.0 0.0 1.0 0.0 0.0 0.0
0.0 0.0 0.0 1.0 1.0 0.32444283 0.0 0.0
0.0 0.0 0.0 0.0 0.0 0.0 0.0 1.0
1.0 0.0 0.0 1.0 0.0 0.0 0.0 0.0
0.0 1.0 1.0 1.0 0.0 0.0 0.0 1.0
1.0 0.0 0.0 0.0 0.0 0.0 0.0 1.0
0.0 0.16222142 0.0 0.0 0.0 0.0 1.0 0.0
0.0 0.0 1.0 1.0 1.0 0.28097573 0.0 1.0
1.0 0.0 0.0 0.0 0.0 0.0 0.0 1.0
1.0 0.16222142 0.0 1.0 1.0 0.0 0.0 0.0
0.0 0.0 0.0 1.0 1.0 0.28097573 0.0 1.0
0.0 0.0 0.0 0.0 0.0 0.0 0.0 1.0
0.0 0.16222142 0.0 0.0 0.0 0.0 1.0 0.0
0.0 0.0 1.0 1.0 1.0 0.42919755 0.0 0.0
1.0 0.0 0.0 0.0 0.0 0.0 0.0 1.0
0.0 0.0 0.0 1.0 0.0 0.0 0.0 0.0
0.0 0.0 0.0 1.0 0.0 0.0 0.0 1.0
1.0 0.0 0.0 0.0 0.0 0.0 0.0 1.0
0.0 0.0 0.0 1.0 0.0 0.0 0.0 0.0
1.0 1.0 0.0 1.0 1.0 0.16222142 0.0 0.0
0.0 0.0 1.0 0.0 0.0 0.0 0.0 1.0
1.0 0.16222142 0.0 0.0 1.0 0.0 0.0 0.0
0.0 0.0 1.0 1.0 1.0 0.0 0.0 1.0

thetas f4 [35, 12, 1]
00000000: 2cc1 9abd 7f12 843e 089a ffbe 0292 743e
00000010: 1c54 96bd c4c6 2bbe 3b2a 4fbf b942 c23e
00000020: 1f9f fabe 27a7 2d3e a337 3cbf 00c4 f0bf
00000030: fb4b 35be 7b7e 643e bcb1 02bf b856 713e
00000040: aa84 4abe 7b54 4ebe 6991 6bbf 5f70 e43e
00000050: 7b51 f7be 03ad 163e 163c 51bf 2707 04c0
00000060: 7a6b 0e3f d55e 193f 102a d6bc 9609 463e
00000070: de64 813f 1a80 d73d 6480 c43e 82fa 3abe
00000080: 8c8b 03bf a191 d93e c6db 973e df24 c53e
00000090: 1e35 303e 9c9f c53e 5caf ddbe 2977 8f3e
000000a0: dd95 723e 974d a5bd b682 04bf 86f2 633e
000000b0: 5844 fcbe f50f 703e 0b4c efbe 3cc3 aabf
000000c0: 46ce 163e 6ccc c03e 9288 cbbe b32e 893e
000000d0: 9222 863e 85c2 cabd 6da5 d6be e89f 5a3e
000000e0: 0be7 06bf 94cb 573e bd9a d3be e23f 9abf
000000f0: ff5b bf3e d97a 033f e343 98be 3888 9c3e
00000100: f450 123f 8077 76bb fb59 06be 5edf 663d
00000110: 5985 04bf f972 963e 6557 06be 62a6 1dbf
00000120: 021a 113f 5023 253f fe27 923e e06a 463d
00000130: f688 a53f 696b 623e ab9e 2b3f 6cf9 b5be
00000140: a903 e9be 62cd 1a3f f569 0f3f 4713 913f
00000150: b19d ea3e 4cbc 0a3f 96f2 18be 24c7 6c3e
00000160: 4b4b 4f3f 3c36 2e3d d823 363e fa2f 96bd
00000170: 139b 08bf cc60 b23e b23b d03d 4ea6 76bd
00000180: 8a2f 0a3f a222 113f 4046 adbe c50a a83e
00000190: b8f3 333f 5c31 743d 4409 d7bd 9065 a1bc
000001a0: f920 fcbe 5e2b b03e cc51 cdbd aaaf 0dbf
000001b0: 7058 7b3e e05c cc3e df5e 8cbe fe97 563e
000001c0: 5c59 f03e 93ad dfbd 878c 27bd 22ac f83d
000001d0: 5956 11bf 27ef 493e ce8f cabd dcf8 1cbf
000001e0: 54ec 02bd 867b 9c3e e262 edbe 92e9 883e
000001f0: 80fc 633b 1663 13be b870 3abf 5178 af3e
00000200: 0eb6 fdbe 4db6 3f3e c31b 28bf f484 dabf
00000210: b2dd 173f 2948 233f 1331 283e 3680 dc3d
00000220: ce22 9a3f 0966 353e 61b6 153f e844 97be
00000230: 6f80 f2be 87f3 083f cbd5 fc3e 1add 623f
00000240: a2ff 153f 5dc4 1c3f b816 b43c 926e 2c3e
00000250: 1ef2 883f 10ee f83d fdd5 e63e 10b1 5abe
00000260: 11f7 febe af79 e73e e722 bf3e 84bf 093f
00000270: aab0 133f b1c2 203f 5c65 ef3d 3ea0 073e
00000280: ea3f 943f 059d 253e c2d8 083f 6a61 8abe
00000290: 0d08 fbbe 1ee9 013f 538b dd3e 46fa 413f
000002a0: 54ec 02bd 867b 9c3e e262 edbe 92e9 883e
000002b0: 80fc 633b 1663 13be b870 3abf 5178 af3e
000002c0: 0eb6 fdbe 4db6 3f3e c31b 28bf f484 dabf
000002d0: 1c10 103f 1d84 1a3f f862 d13c 20bc 263e
000002e0: c323 873f 9eb9 f73d c53e de3e 0402 56be
000002f0: ddc9 ffbe a23d e83e d035 b33e 9c23 033f
00000300: 265d 333e 7018 c13e 9278 99be 4277 623e
00000310: 3ea9 c43e 26c0 ffbd 429b 0dbe 7a38 273e
00000320: 2988 12bf 7f4c 3a3e 2462 46be 76c0 48bf
00000330: 7058 7b3e e05c cc3e df5e 8cbe fe97 563e
00000340: 5c59 f03e 93ad dfbd 878c 27bd 22ac f83d
00000350: 5956 11bf 27ef 493e ce8f cabd dcf8 1cbf
00000360: 80eb 86bb 0225 933e 8250 c5be 345d 5d3e
00000370: b6a3 003e fb68 43be a6ba d0be 6e21 973e
00000380: fcbc 11bf 2de4 003e fa7b debe 7cd9 a4bf
00000390: 265e 2e3e 7db2 d23e 1e4b c3be c68e 953e
000003a0: 68a0 943e db32 9cbd 0987 d6be fee7 4b3e
000003b0: c788 03bf f56d 703e 1dc3 c7be 4e6c 93bf
000003c0: 31dc d03e b0fe fe3e b289 babe 8680 9c3e
000003d0: babf 0b3f 809f 34ba 16de 58be 2a18 853d
000003e0: af15 01bf 239c 953e b888 50be 32e5 48bf
000003f0: d2b1 6a3e 2f44 d73e a3f5 a0be 22c9 863e
-0.07556376 0.2579536 -0.49922204 0.23883823 -0.07340261 -0.16775042 -0.80923814 0.3794153
-0.48949525 0.16958295 -0.73522395 -1.8809814 -0.17704765 0.22313873 -0.5105245 0.23568237
-0.1977717 -0.20149414 -0.92018753 0.44616982 -0.48304352 0.14714436 -0.8173231 -2.0629365
0.55632746 0.5991033 -0.026143104 0.19339594 1.0108907 0.1052248 0.38379204 -0.18259624
-0.51384807 0.4249392 0.2965986 0.38504693 0.17207763 0.38598335 -0.4329785 0.280206
0.23689981 -0.0807144 -0.5176195 0.22260484 -0.49270892 0.23443587 -0.46737704 -1.3340831
0.14727125 0.37655962 -0.39752632 0.2679344 0.2619825 -0.09900383 -0.41923085 0.21350062
-0.52696294 0.21073753 -0.41328993 -1.2050745 0.37374875 0.51359326 -0.29739293 0.30572677
0.57154775 -0.0037607849 -0.13120262 0.056365363 -0.5176597 0.29384592 -0.13119276 -0.61582005
0.5668031 0.6450701 0.28546137 0.048441768 1.2932422 0.22111286 0.67038983 -0.35541856
-0.45510605 0.6046964 0.5602105 1.1334008 0.45823434 0.5419357 -0.14936289 0.23122841
0.8097426 0.04253219 0.17787111 -0.073333696 -0.53361624 0.34839475 0.10167636 -0.060217194
0.5397879 0.5669347 -0.3384266 0.32820717 0.7029376 0.059617385 -0.10499814 -0.01970175
-0.49243906 0.34408087 -0.10025367 -0.5534617 0.24545455 0.39914608 -0.2741613 0.20956418
0.46943176 -0.109217785 -0.0409055 0.12142207 -0.5677238 0.19720136 -0.0989071 -0.6131723
-0.03196366 0.3056299 -0.46364504 0.267407 0.0034787953 -0.14393267 -0.72828245 0.34271482
-0.4955296 0.18721886 -0.6566736 -1.7071824 0.59322655 0.6378198 0.1642497 0.10766642
1.2041872 0.17714705 0.58481413 -0.2954476 -0.47363612 0.53496593 0.4938186 0.88618624
0.5859319 0.61237127 0.02198349 0.16839054 1.0698888 0.12154782 0.45085135 -0.21356606
-0.49797872 0.45210025 0.37331316 0.53807855 0.5769144 0.62797076 0.11689255 0.13244721
1.1582005 0.1617318 0.53455746 -0.27027446 -0.4902958 0.50746334 0.43270358 0.7577251
-0.03196366 0.3056299 -0.46364504 0.267407 0.0034787953 -0.14393267 -0.72828245 0.34271482
-0.4955296 0.18721886 -0.6566736 -1.7071824 0.5627458 0.6035784 0.025559887 0.16282701
1.0557789 0.120959505 0.43407264 -0.20899206 -0.49958697 0.45359522 0.35001993 0.5122621
0.17516002 0.37713957 -0.299748 0.22115806 0.38410372 -0.12487821 -0.13828757 0.16330138
-0.57239014 0.18193243 -0.19373375 -0.7841867 0.24545455 0.39914608 -0.2741613 0.20956418
0.46943176 -0.109217785 -0.0409055 0.12142207 -0.5677238 0.19720136 -0.0989071 -0.6131723
-0.0041174293 0.28739172 -0.38537985 0.21617585 0.12562451 -0.19083016 -0.407674 0.29517692
-0.5692899 0.12587042 -0.43453962 -1.2878871 0.17028102 0.411518 -0.38143247 0.2921049
0.2902863 -0.076268874 -0.418999 0.19912717 -0.5138058 0.23479445 -0.39016047 -1.1517427
0.40792993 0.49803686 -0.36433178 0.30566806 0.54589427 -0.00068902224 -0.21178469 0.064987496
-0.5042371 0.29220685 -0.20364654 -0.78474724 0.22919396 0.42044207 -0.31437406 0.26325327
